++++++++ Session Characteristics +++++++

Area: north
Gal Type: lrg
Training Samples: 290460
Validation Samples: 72616
Test Samples: 72616
Number of features: 16
Device: cuda:0
Number of Workers: 8

+++++++++++++++++++++++++++++++++++++++
BaseNet(
  (mlp): Sequential(
    (0): Linear(in_features=16, out_features=64, bias=True)
    (1): ReLU()
    (2): Dropout(p=0.1, inplace=False)
    (3): Linear(in_features=64, out_features=64, bias=True)
    (4): ReLU()
    (5): Dropout(p=0.1, inplace=False)
    (6): Linear(in_features=64, out_features=64, bias=True)
    (7): ReLU()
    (8): Dropout(p=0.1, inplace=False)
    (9): Linear(in_features=64, out_features=64, bias=True)
    (10): ReLU()
    (11): Dropout(p=0.1, inplace=False)
    (12): Linear(in_features=64, out_features=32, bias=True)
    (13): Linear(in_features=32, out_features=1, bias=True)
  )
)

 Model params: 15681

epoch 0 -1.6876484309131095 7.983457717123128 0
epoch 1 -1.707808420606756 8.013343645701358 0
epoch 2 -1.7364599166064458 8.055626943095074 1
epoch 3 -1.7158864098213131 8.025287529488168 2
epoch 4 -1.729002789353105 8.04464326009742 3
epoch 5 -1.7039909846876875 8.0076930954736 4
epoch 6 -1.7013623576095598 8.003799895172016 5
…
Target: 72616, NaN: 0, Max: 175.0, Min: 6.0, Mean: 31.337873195989864
Prediction: 72616, NaN: 0, Max: 3.6689372062683105, Min: 3.207496404647827, Mean: 3.4204014627513506

 XXXXXX======== TRIAL north - elg ended

Test Set - R-squared:  -12.877205087343519
Test Set - RMSE:  28.974688084857778
Test Set - MAE:  27.917471733238514



++++++++ Session Characteristics +++++++

Area: north
Gal Type: qso
Training Samples: 290460
Validation Samples: 72616
Test Samples: 72616
Number of features: 16
Device: cuda:0
Number of Workers: 8

+++++++++++++++++++++++++++++++++++++++
BaseNet(
  (mlp): Sequential(
    (0): Linear(in_features=16, out_features=60, bias=True)
    (1): ReLU()
    (2): Dropout(p=0.15, inplace=False)
    (3): Linear(in_features=60, out_features=60, bias=True)
    (4): ReLU()
    (5): Dropout(p=0.15, inplace=False)
    (6): Linear(in_features=60, out_features=60, bias=True)
    (7): ReLU()
    (8): Dropout(p=0.15, inplace=False)
    (9): Linear(in_features=60, out_features=60, bias=True)
    (10): ReLU()
    (11): Dropout(p=0.15, inplace=False)
    (12): Linear(in_features=60, out_features=30, bias=True)
    (13): Linear(in_features=30, out_features=1, bias=True)
  )
)

 Model params: 13861

epoch 0 -1.453697233259383 3.8758681880964296 0
epoch 1 -1.4518679243978867 3.87442312757637 0
epoch 2 -1.4426733272872632 3.8671516877655323 0
epoch 3 -1.4296404568321552 3.856821306353589 0
epoch 4 -1.4205667409342162 3.849612742731546 0
epoch 5 -1.419321637523347 3.8486225237019958 0
epoch 6 -1.4318020195010894 3.858536561697091 0
…
Target: 72616, NaN: 0, Max: 135.0, Min: 0.0, Mean: 30.728833865814696
Prediction: 72616, NaN: 0, Max: 4.017735958099365, Min: 3.1800177097320557, Mean: 3.4011328468911644

 XXXXXX======== TRIAL north - glbg ended

Test Set - R-squared:  -5.841873161209636
Test Set - RMSE:  29.555481963800727
Test Set - MAE:  27.32804477237796



++++++++ Session Characteristics +++++++

Area: north
Gal Type: rlbg
Training Samples: 290460
Validation Samples: 72616
Test Samples: 72616
Number of features: 16
Device: cuda:0
Number of Workers: 8

+++++++++++++++++++++++++++++++++++++++
BaseNet(
  (mlp): Sequential(
    (0): Linear(in_features=16, out_features=50, bias=True)
    (1): ReLU()
    (2): Dropout(p=0.2, inplace=False)
    (3): Linear(in_features=50, out_features=50, bias=True)
    (4): ReLU()
    (5): Dropout(p=0.2, inplace=False)
    (6): Linear(in_features=50, out_features=50, bias=True)
    (7): ReLU()
    (8): Dropout(p=0.2, inplace=False)
    (9): Linear(in_features=50, out_features=50, bias=True)
    (10): ReLU()
    (11): Dropout(p=0.2, inplace=False)
    (12): Linear(in_features=50, out_features=25, bias=True)
    (13): Linear(in_features=25, out_features=1, bias=True)
  )
)

 Model params: 9801

epoch 0 -5.111824429114279 24.192960994142762 0
epoch 1 -5.098541905068022 24.166658016213333 0
epoch 2 -5.100941078584505 24.17141114454857 0
epoch 3 -5.067233873003924 24.104546115728034 1
epoch 4 -5.066088020099923 24.102269825663 0
epoch 5 -5.051529365781088 24.073329641713638 0
epoch 6 -5.058044191813848 24.086284331160314 0
…
