++++++++ Session Characteristics +++++++

Area: north
Gal Type: lrg
Training Samples: 290460
Validation Samples: 72616
Test Samples: 72616
Number of features: 16
Device: cuda:0
Number of Workers: 8

+++++++++++++++++++++++++++++++++++++++
BaseNet(
  (mlp): Sequential(
    (0): Linear(in_features=16, out_features=64, bias=True)
    (1): ReLU()
    (2): Dropout(p=0.1, inplace=False)
    (3): Linear(in_features=64, out_features=64, bias=True)
    (4): ReLU()
    (5): Dropout(p=0.1, inplace=False)
    (6): Linear(in_features=64, out_features=64, bias=True)
    (7): ReLU()
    (8): Dropout(p=0.1, inplace=False)
    (9): Linear(in_features=64, out_features=64, bias=True)
    (10): ReLU()
    (11): Dropout(p=0.1, inplace=False)
    (12): Linear(in_features=64, out_features=32, bias=True)
    (13): Linear(in_features=32, out_features=1, bias=True)
  )
)

 Model params: 15681

epoch 0 0.008198314019804753 4.849726210816757 0
epoch 1 0.005011526046527326 4.857511363087817 0
epoch 2 0.0008728320538474721 4.867603384955492 1
epoch 3 0.00710496293398688 4.852398616478616 2
epoch 4 0.005683674270076988 4.8558703796471665 3
epoch 5 0.007844987868136477 4.850589983554681 4
epoch 6 0.005987741720686612 4.855127846819693 5
…
Target: 72616, NaN: 0, Max: 175.0, Min: 6.0, Mean: 31.337873195989864
Prediction: 72616, NaN: 0, Max: 3.6904778480529785, Min: 3.222169876098633, Mean: 3.446077899036132

 XXXXXX======== TRIAL north - elg ended

Test Set - R-squared:  -12.854037794043222
Test Set - RMSE:  28.950492092659818
Test Set - MAE:  27.89179529695373



++++++++ Session Characteristics +++++++

Area: north
Gal Type: qso
Training Samples: 290460
Validation Samples: 72616
Test Samples: 72616
Number of features: 16
Device: cuda:0
Number of Workers: 8

+++++++++++++++++++++++++++++++++++++++
BaseNet(
  (mlp): Sequential(
    (0): Linear(in_features=16, out_features=60, bias=True)
    (1): ReLU()
    (2): Dropout(p=0.15, inplace=False)
    (3): Linear(in_features=60, out_features=60, bias=True)
    (4): ReLU()
    (5): Dropout(p=0.15, inplace=False)
    (6): Linear(in_features=60, out_features=60, bias=True)
    (7): ReLU()
    (8): Dropout(p=0.15, inplace=False)
    (9): Linear(in_features=60, out_features=60, bias=True)
    (10): ReLU()
    (11): Dropout(p=0.15, inplace=False)
    (12): Linear(in_features=60, out_features=30, bias=True)
    (13): Linear(in_features=30, out_features=1, bias=True)
  )
)

 Model params: 13861

epoch 0 -1.4744501638187897 3.892224375042697 0
epoch 1 -1.4662896368887681 3.8858009616398497 0
epoch 2 -1.4405814092351505 3.8654954087398905 0
epoch 3 -1.4463784004652833 3.8700834450954855 0
epoch 4 -1.4256071033923816 3.853618695705621 1
epoch 5 -1.4328497079502815 3.859367655025722 0
epoch 6 -1.4249614171443423 3.8531057531510493 1
…
Target: 72616, NaN: 0, Max: 135.0, Min: 0.0, Mean: 30.728833865814696
Prediction: 72616, NaN: 0, Max: 4.09912633895874, Min: 3.241621494293213, Mean: 3.4516139033772655

 XXXXXX======== TRIAL north - glbg ended

Test Set - R-squared:  -5.819696136206225
Test Set - RMSE:  29.507542996625077
Test Set - MAE:  27.277571536603052



++++++++ Session Characteristics +++++++

Area: north
Gal Type: rlbg
Training Samples: 290460
Validation Samples: 72616
Test Samples: 72616
Number of features: 16
Device: cuda:0
Number of Workers: 8

+++++++++++++++++++++++++++++++++++++++
BaseNet(
  (mlp): Sequential(
    (0): Linear(in_features=16, out_features=50, bias=True)
    (1): ReLU()
    (2): Dropout(p=0.2, inplace=False)
    (3): Linear(in_features=50, out_features=50, bias=True)
    (4): ReLU()
    (5): Dropout(p=0.2, inplace=False)
    (6): Linear(in_features=50, out_features=50, bias=True)
    (7): ReLU()
    (8): Dropout(p=0.2, inplace=False)
    (9): Linear(in_features=50, out_features=50, bias=True)
    (10): ReLU()
    (11): Dropout(p=0.2, inplace=False)
    (12): Linear(in_features=50, out_features=25, bias=True)
    (13): Linear(in_features=25, out_features=1, bias=True)
  )
)

 Model params: 9801

epoch 0 -5.112740688871493 24.194774381134508 0
epoch 1 -5.077538689692727 24.1250074621835 0
epoch 2 -5.072579364710066 24.11516234429319 0
epoch 3 -5.055313329378905 24.080854877249454 0
epoch 4 -5.0596642300448 24.089504685110263 0
epoch 5 -5.0447164703520215 24.05977478190163 1
epoch 6 -5.042165679037067 24.054697791052696 0
…
