++++++++ Session Characteristics +++++++

Area: north
Gal Type: lrg
Training Samples: 70226
Validation Samples: 7803
Test Samples: 19508
Number of features: 15
Device: cuda:0
Number of Workers: 8

+++++++++++++++++++++++++++++++++++++++
BaseNet(
  (mlp): Sequential(
    (0): Linear(in_features=15, out_features=50, bias=True)
    (1): ReLU()
    (2): Dropout(p=0.2, inplace=False)
    (3): Linear(in_features=50, out_features=50, bias=True)
    (4): ReLU()
    (5): Dropout(p=0.2, inplace=False)
    (6): Linear(in_features=50, out_features=50, bias=True)
    (7): ReLU()
    (8): Dropout(p=0.2, inplace=False)
    (9): Linear(in_features=50, out_features=50, bias=True)
    (10): ReLU()
    (11): Dropout(p=0.2, inplace=False)
    (12): Linear(in_features=50, out_features=25, bias=True)
    (13): Linear(in_features=25, out_features=1, bias=True)
  )
)

 Model params: 9751

epoch 0 0.006452346458522551 11.699058842634203 0
epoch 1 0.005002869751016603 11.70758955223457 0
epoch 2 0.003631349688991037 11.715655738506653 1
epoch 3 0.020833184895523327 11.614082789871778 2
epoch 4 0.015404108113785231 11.646235935763489 0
epoch 5 0.00021845615182125577 11.735703591473959 1
epoch 6 0.022339144660631693 11.605148116362397 2
…
[51. 35. 31. ... 28. 22. 36.]
Prediction 37144 0 40.33067321777344 27.134580612182617 33.553709109230546
[32.83327484 33.32085419 34.64720917 ... 32.80613327 33.43626785
 32.48933792]

 XXXXXX======== TRIAL south - lrg ended

Test Set - R-squared:  0.017411239380968002
Test Set - RMSE:  11.714147682191216
Test Set - MAE:  8.480512699432833



++++++++ Session Characteristics +++++++

Area: south
Gal Type: elg
Training Samples: 133716
Validation Samples: 14858
Test Samples: 37144
Number of features: 15
Device: cuda:0
Number of Workers: 8

+++++++++++++++++++++++++++++++++++++++
BaseNet(
  (mlp): Sequential(
    (0): Linear(in_features=15, out_features=40, bias=True)
    (1): ReLU()
    (2): Dropout(p=0.15, inplace=False)
    (3): Linear(in_features=40, out_features=40, bias=True)
    (4): ReLU()
    (5): Dropout(p=0.15, inplace=False)
    (6): Linear(in_features=40, out_features=40, bias=True)
    (7): ReLU()
    (8): Dropout(p=0.15, inplace=False)
    (9): Linear(in_features=40, out_features=40, bias=True)
    (10): ReLU()
    (11): Dropout(p=0.15, inplace=False)
    (12): Linear(in_features=40, out_features=20, bias=True)
    (13): Linear(in_features=20, out_features=1, bias=True)
  )
)

 Model params: 6401

epoch 0 0.10908914020565585 21.894542422029847 0
epoch 1 0.13344713156021637 21.59316378494305 0
epoch 2 0.15515664393599704 21.320964318811576 0
epoch 3 0.15425770445384812 21.332304386070298 0
epoch 4 0.18221207393229488 20.976793066198233 1
epoch 5 0.18467372456992237 20.94519780051789 0
epoch 6 0.17716385042081395 21.04143856606339 0
…
[ 97. 150. 113. ... 133. 123. 139.]
Prediction 37144 0 154.7023468017578 12.766350746154785 128.66348080814282
[115.85570526 139.24916077 129.82325745 ... 128.78637695 119.17848206
 137.99539185]

 XXXXXX======== TRIAL south - elg ended

Test Set - R-squared:  0.22962471314859434
Test Set - RMSE:  20.415100627207885
Test Set - MAE:  15.743269777980931



++++++++ Session Characteristics +++++++

Area: south
Gal Type: qso
Training Samples: 133716
Validation Samples: 14858
Test Samples: 37144
Number of features: 15
Device: cuda:0
Number of Workers: 8

+++++++++++++++++++++++++++++++++++++++
BaseNet(
  (mlp): Sequential(
    (0): Linear(in_features=15, out_features=35, bias=True)
    (1): ReLU()
    (2): Dropout(p=0.25, inplace=False)
    (3): Linear(in_features=35, out_features=35, bias=True)
    (4): ReLU()
    (5): Dropout(p=0.25, inplace=False)
    (6): Linear(in_features=35, out_features=35, bias=True)
    (7): ReLU()
    (8): Dropout(p=0.25, inplace=False)
    (9): Linear(in_features=35, out_features=35, bias=True)
    (10): ReLU()
    (11): Dropout(p=0.25, inplace=False)
    (12): Linear(in_features=35, out_features=17, bias=True)
    (13): Linear(in_features=17, out_features=1, bias=True)
  )
)

 Model params: 4970

epoch 0 -32.96498224417091 161.20467737155 0
epoch 1 -32.96498224417091 161.20467737155 0
epoch 2 -32.96498224417091 161.20467737155 1
epoch 3 -32.964982243998755 161.20467737114143 2
epoch 4 -32.96501509804635 161.20475533710095 0
epoch 5 -32.964982244176205 161.20467737156252 1
epoch 6 -32.96499016740128 161.20469617417604 2
epoch 7 -32.96498224462833 161.20467737263547 3
…
Prediction 37144 0 -2.8286089218454435e-05 -2.8286089218454435e-05 -2.8286089218454435e-05
[-2.82860892e-05 -2.82860892e-05 -2.82860892e-05 ... -2.82860892e-05
 -2.82860892e-05 -2.82860892e-05]

 XXXXXX======== TRIAL south - qso ended

Test Set - R-squared:  -31.85132331121018
Test Set - RMSE:  161.3034201066835
Test Set - MAE:  158.82939507480341



++++++++ Session Characteristics +++++++

Area: des
Gal Type: lrg
Training Samples: 62373
Validation Samples: 6931
Test Samples: 17327
Number of features: 15
Device: cuda:0
Number of Workers: 8

+++++++++++++++++++++++++++++++++++++++
BaseNet(
  (mlp): Sequential(
    (0): Linear(in_features=15, out_features=60, bias=True)
    (1): ReLU()
    (2): Dropout(p=0.2, inplace=False)
    (3): Linear(in_features=60, out_features=60, bias=True)
    (4): ReLU()
    (5): Dropout(p=0.2, inplace=False)
    (6): Linear(in_features=60, out_features=60, bias=True)
    (7): ReLU()
    (8): Dropout(p=0.2, inplace=False)
    (9): Linear(in_features=60, out_features=60, bias=True)
    (10): ReLU()
    (11): Dropout(p=0.2, inplace=False)
    (12): Linear(in_features=60, out_features=30, bias=True)
    (13): Linear(in_features=30, out_features=1, bias=True)
  )
)

 Model params: 13801

epoch 0 -0.0007938295576783716 10.139013695151032 0
epoch 1 0.0012832643416296197 10.128486740805545 0
epoch 2 0.0019087265570189027 10.125314681258388 0
epoch 3 -0.01417293568658029 10.20656036629702 0
epoch 4 0.0071034467640093135 10.098930924735372 1
epoch 5 0.00814503917393583 10.09363242212228 0
epoch 6 0.012136928622240362 10.073300171280453 0
…
