Starting Loading north
Finished Loading north
Finished north setup

++++++++ Session Characteristics +++++++

Area: north
Gal Type: lrg
Training Set: 290439
Validation Set: 72610
Test Samples: 72610
Number of features: 5
Device: cuda:0
Number of Workers: 8

+++++++++++++++++++++++++++++++++++++++
VarMultiSetNet(
  (feature_extractor): Sequential(
    (0): Linear(in_features=5, out_features=150, bias=True)
    (1): ReLU()
    (2): Dropout(p=0.3, inplace=False)
    (3): Linear(in_features=150, out_features=150, bias=True)
    (4): ReLU()
    (5): Dropout(p=0.3, inplace=False)
    (6): Linear(in_features=150, out_features=150, bias=True)
    (7): ReLU()
  )
  (adder): InvLinear(in_features=150, out_features=1, bias=True, reduction=sum)
  (mlp): Sequential(
    (0): Linear(in_features=22, out_features=100, bias=True)
    (1): ReLU()
    (2): Dropout(p=0.25, inplace=False)
    (3): Linear(in_features=100, out_features=100, bias=True)
    (4): ReLU()
    (5): Dropout(p=0.25, inplace=False)
    (6): Linear(in_features=100, out_features=100, bias=True)
    (7): ReLU()
    (8): Dropout(p=0.25, inplace=False)
    (9): Linear(in_features=100, out_features=100, bias=True)
    (10): ReLU()
    (11): Dropout(p=0.25, inplace=False)
    (12): Linear(in_features=100, out_features=50, bias=True)
    (13): Linear(in_features=50, out_features=1, bias=True)
  )
)
Learning Rate: 0.0001546764411255828, weight decay: 0.03184751820920388, batch_size: 32

 Model params: 84052

epoch 0 -0.006180312586494097 4.884679103513443 0
epoch 1 0.006758008466234311 4.853171812574351 0
epoch 2 0.009792719716536946 4.845752048680869 0
epoch 3 0.009045052610438087 4.847581123180138 0
epoch 4 0.00994126291591746 4.84538857402061 1
…
Prediction: 72610, NaN: 0, Max: 10.471081733703613, Min: 8.341507911682129, Mean: 8.74087543716084

 XXXXXX======== TRIAL north - lrg ended

Test Set - R-squared:  0.00752844605760461
Test Set - RMSE:  4.851289194141804
Test Set - MAE:  3.3233582253791694



Starting Loading north
Finished Loading north
Finished north setup

++++++++ Session Characteristics +++++++

Area: north
Gal Type: elg
Training Set: 290439
Validation Set: 72610
Test Samples: 72610
Number of features: 5
Device: cuda:0
Number of Workers: 8

+++++++++++++++++++++++++++++++++++++++
VarMultiSetNet(
  (feature_extractor): Sequential(
    (0): Linear(in_features=5, out_features=60, bias=True)
    (1): ReLU()
    (2): Dropout(p=0.1, inplace=False)
    (3): Linear(in_features=60, out_features=60, bias=True)
    (4): ReLU()
    (5): Dropout(p=0.1, inplace=False)
    (6): Linear(in_features=60, out_features=380, bias=True)
    (7): ReLU()
  )
  (adder): InvLinear(in_features=380, out_features=1, bias=True, reduction=sum)
  (mlp): Sequential(
    (0): Linear(in_features=22, out_features=100, bias=True)
    (1): ReLU()
    (2): Dropout(p=0.27, inplace=False)
    (3): Linear(in_features=100, out_features=100, bias=True)
    (4): ReLU()
    (5): Dropout(p=0.27, inplace=False)
    (6): Linear(in_features=100, out_features=100, bias=True)
    (7): ReLU()
    (8): Dropout(p=0.27, inplace=False)
    (9): Linear(in_features=100, out_features=100, bias=True)
    (10): ReLU()
    (11): Dropout(p=0.27, inplace=False)
    (12): Linear(in_features=100, out_features=50, bias=True)
    (13): Linear(in_features=50, out_features=1, bias=True)
  )
)
Learning Rate: 0.0004599944376425736, weight decay: 0.0738690886140696, batch_size: 32

 Model params: 65282

epoch 0 -13.778117328307083 29.90041495384716 0
epoch 1 -13.034795543172182 29.138735781522048 0
epoch 2 -13.044552912485528 29.14886304010424 0
epoch 3 -12.85977565175029 28.95647955894414 1
epoch 4 -12.897049290825988 28.995390314401554 0
epoch 5 -12.90009526448798 28.99856776431986 1
…
Prediction: 72610, NaN: 0, Max: 3.48287034034729, Min: 3.174503803253174, Mean: 3.4397720279419097

 XXXXXX======== TRIAL north - elg ended

Test Set - R-squared:  -12.864804163191316
Test Set - RMSE:  28.961731981049578
Test Set - MAE:  27.897771010207105



Starting Loading north
Finished Loading north
Finished north setup

++++++++ Session Characteristics +++++++

Area: north
Gal Type: qso
Training Set: 290439
Validation Set: 72610
Test Samples: 72610
Number of features: 5
Device: cuda:0
Number of Workers: 8

+++++++++++++++++++++++++++++++++++++++
VarMultiSetNet(
  (feature_extractor): Sequential(
    (0): Linear(in_features=5, out_features=175, bias=True)
    (1): ReLU()
    (2): Dropout(p=0.075, inplace=False)
    (3): Linear(in_features=175, out_features=175, bias=True)
    (4): ReLU()
    (5): Dropout(p=0.075, inplace=False)
    (6): Linear(in_features=175, out_features=250, bias=True)
    (7): ReLU()
  )
  (adder): InvLinear(in_features=250, out_features=1, bias=True, reduction=sum)
  (mlp): Sequential(
    (0): Linear(in_features=22, out_features=175, bias=True)
    (1): ReLU()
    (2): Dropout(p=0.25, inplace=False)
    (3): Linear(in_features=175, out_features=175, bias=True)
    (4): ReLU()
    (5): Dropout(p=0.25, inplace=False)
    (6): Linear(in_features=175, out_features=175, bias=True)
    (7): ReLU()
    (8): Dropout(p=0.25, inplace=False)
    (9): Linear(in_features=175, out_features=175, bias=True)
    (10): ReLU()
    (11): Dropout(p=0.25, inplace=False)
    (12): Linear(in_features=175, out_features=87, bias=True)
    (13): Linear(in_features=87, out_features=1, bias=True)
  )
)
Learning Rate: 0.0002129782693067251, weight decay: 0.01091575020984078, batch_size: 32

 Model params: 187926

epoch 0 -1.4135219275925999 3.8451304592096225 0
epoch 1 -1.3976649130542365 3.8324782501419152 0
epoch 2 -1.423087730106019 3.852742858509157 0
epoch 3 -1.4487903488246863 3.8731227156882273 1
epoch 4 -1.4448631838943848 3.8700157745631634 2
…
Prediction: 72610, NaN: 0, Max: 2.0081334114074707, Min: 1.305474042892456, Mean: 1.4560431672084957

 XXXXXX======== TRIAL north - qso ended

Test Set - R-squared:  -1.4208006279780756
Test Set - RMSE:  3.8509241673124137
Test Set - MAE:  3.0940617836157065



Starting Loading north
Finished Loading north
Finished north setup

++++++++ Session Characteristics +++++++

Area: north
Gal Type: glbg
Training Set: 290439
Validation Set: 72610
Test Samples: 72610
Number of features: 5
Device: cuda:0
Number of Workers: 8

+++++++++++++++++++++++++++++++++++++++
VarMultiSetNet(
  (feature_extractor): Sequential(
    (0): Linear(in_features=5, out_features=70, bias=True)
    (1): ReLU()
    (2): Dropout(p=0.2, inplace=False)
    (3): Linear(in_features=70, out_features=70, bias=True)
    (4): ReLU()
    (5): Dropout(p=0.2, inplace=False)
    (6): Linear(in_features=70, out_features=100, bias=True)
    (7): ReLU()
  )
  (adder): InvLinear(in_features=100, out_features=1, bias=True, reduction=sum)
  (mlp): Sequential(
    (0): Linear(in_features=22, out_features=200, bias=True)
    (1): ReLU()
    (2): Dropout(p=0.25, inplace=False)
    (3): Linear(in_features=200, out_features=200, bias=True)
    (4): ReLU()
    (5): Dropout(p=0.25, inplace=False)
    (6): Linear(in_features=200, out_features=200, bias=True)
    (7): ReLU()
    (8): Dropout(p=0.25, inplace=False)
    (9): Linear(in_features=200, out_features=200, bias=True)
    (10): ReLU()
    (11): Dropout(p=0.25, inplace=False)
    (12): Linear(in_features=200, out_features=100, bias=True)
    (13): Linear(in_features=100, out_features=1, bias=True)
  )
)
Learning Rate: 0.0010669093353509024, weight decay: 0.12333702988885017, batch_size: 128

 Model params: 157992

epoch 0 -5.94201241756966 29.77092220328155 0
epoch 1 -5.930692588107432 29.746639672862443 0
epoch 2 -5.894846969188231 29.66961497548465 0
epoch 3 -5.857202513554662 29.58850910088828 0
epoch 4 -5.869411994081495 29.61483905533578 0
epoch 5 -5.876260198796162 29.62959708413099 1
…
Prediction: 72610, NaN: 0, Max: 3.3512251377105713, Min: 3.2916722297668457, Mean: 3.341004333475079

 XXXXXX======== TRIAL north - glbg ended

Test Set - R-squared:  -5.875483749172789
Test Set - RMSE:  29.627924187941076
Test Set - MAE:  27.389016297795756



Starting Loading north
Finished Loading north
Finished north setup

++++++++ Session Characteristics +++++++

Area: north
Gal Type: rlbg
Training Set: 290439
Validation Set: 72610
Test Samples: 72610
Number of features: 5
Device: cuda:0
Number of Workers: 8

+++++++++++++++++++++++++++++++++++++++
VarMultiSetNet(
  (feature_extractor): Sequential(
    (0): Linear(in_features=5, out_features=220, bias=True)
    (1): ReLU()
    (2): Dropout(p=0.3, inplace=False)
    (3): Linear(in_features=220, out_features=220, bias=True)
    (4): ReLU()
    (5): Dropout(p=0.3, inplace=False)
    (6): Linear(in_features=220, out_features=150, bias=True)
    (7): ReLU()
  )
  (adder): InvLinear(in_features=150, out_features=1, bias=True, reduction=sum)
  (mlp): Sequential(
    (0): Linear(in_features=22, out_features=100, bias=True)
    (1): ReLU()
    (2): Dropout(p=0.2, inplace=False)
    (3): Linear(in_features=100, out_features=100, bias=True)
    (4): ReLU()
    (5): Dropout(p=0.2, inplace=False)
    (6): Linear(in_features=100, out_features=100, bias=True)
    (7): ReLU()
    (8): Dropout(p=0.2, inplace=False)
    (9): Linear(in_features=100, out_features=100, bias=True)
    (10): ReLU()
    (11): Dropout(p=0.2, inplace=False)
    (12): Linear(in_features=100, out_features=50, bias=True)
    (13): Linear(in_features=50, out_features=1, bias=True)
  )
)
Learning Rate: 9.698438573821183e-05, weight decay: 0.23961834074306818, batch_size: 256

 Model params: 120942

epoch 0 -6.5055889297546745 26.809361309763506 0
epoch 1 -6.082949927806491 26.04360896849376 0
epoch 2 -6.057955385116936 25.997616593144517 0
epoch 3 -6.007434872910961 25.904404634356354 0
epoch 4 -5.984038788922368 25.861124293114823 0
…
Prediction: 132567, NaN: 0, Max: 2.155535936355591, Min: 2.155535936355591, Mean: 2.155535936355591

 XXXXXX======== TRIAL south - lrg ended

Test Set - R-squared:  -1.713950680696379
Test Set - RMSE:  8.076458313519833
Test Set - MAE:  6.455419835763605



Starting Loading south
Finished Loading south
Finished south setup

++++++++ Session Characteristics +++++++

Area: south
Gal Type: elg
Training Set: 270812
Validation Set: 132567
Test Samples: 132567
Number of features: 5
Device: cuda:0
Number of Workers: 8

+++++++++++++++++++++++++++++++++++++++
VarMultiSetNet(
  (feature_extractor): Sequential(
    (0): Linear(in_features=5, out_features=250, bias=True)
    (1): ReLU()
    (2): Dropout(p=0.25, inplace=False)
    (3): Linear(in_features=250, out_features=250, bias=True)
    (4): ReLU()
    (5): Dropout(p=0.25, inplace=False)
    (6): Linear(in_features=250, out_features=500, bias=True)
    (7): ReLU()
  )
  (adder): InvLinear(in_features=500, out_features=1, bias=True, reduction=sum)
  (mlp): Sequential(
    (0): Linear(in_features=22, out_features=175, bias=True)
    (1): ReLU()
    (2): Dropout(p=0.3, inplace=False)
    (3): Linear(in_features=175, out_features=175, bias=True)
    (4): ReLU()
    (5): Dropout(p=0.3, inplace=False)
    (6): Linear(in_features=175, out_features=175, bias=True)
    (7): ReLU()
    (8): Dropout(p=0.3, inplace=False)
    (9): Linear(in_features=175, out_features=175, bias=True)
    (10): ReLU()
    (11): Dropout(p=0.3, inplace=False)
    (12): Linear(in_features=175, out_features=87, bias=True)
    (13): Linear(in_features=87, out_features=1, bias=True)
  )
)
Learning Rate: 0.00018641861416175164, weight decay: 0.07947795784779363, batch_size: 256

 Model params: 302076

epoch 0 -14.135004263703049 30.82326454128838 0
epoch 1 -13.878115844607134 30.560561384151153 0
epoch 2 -13.857377982744074 30.539255537935574 0
epoch 3 -13.85204210395305 30.533771111291124 0
epoch 4 -13.839746745698138 30.52112970536671 0
…
Prediction: 132567, NaN: 0, Max: 3.5753931999206543, Min: 3.4643335342407227, Mean: 3.491481949442137

 XXXXXX======== TRIAL south - elg ended

Test Set - R-squared:  -13.761204018540662
Test Set - RMSE:  30.440252545727365
Test Set - MAE:  29.392021337887755



Starting Loading south
Finished Loading south
Finished south setup

++++++++ Session Characteristics +++++++

Area: south
Gal Type: qso
Training Set: 270812
Validation Set: 132567
Test Samples: 132567
Number of features: 5
Device: cuda:0
Number of Workers: 8

+++++++++++++++++++++++++++++++++++++++
VarMultiSetNet(
  (feature_extractor): Sequential(
    (0): Linear(in_features=5, out_features=200, bias=True)
    (1): ReLU()
    (2): Dropout(p=0.2, inplace=False)
    (3): Linear(in_features=200, out_features=200, bias=True)
    (4): ReLU()
    (5): Dropout(p=0.2, inplace=False)
    (6): Linear(in_features=200, out_features=185, bias=True)
    (7): ReLU()
  )
  (adder): InvLinear(in_features=185, out_features=1, bias=True, reduction=sum)
  (mlp): Sequential(
    (0): Linear(in_features=22, out_features=100, bias=True)
    (1): ReLU()
    (2): Dropout(p=0.2, inplace=False)
    (3): Linear(in_features=100, out_features=100, bias=True)
    (4): ReLU()
    (5): Dropout(p=0.2, inplace=False)
    (6): Linear(in_features=100, out_features=100, bias=True)
    (7): ReLU()
    (8): Dropout(p=0.2, inplace=False)
    (9): Linear(in_features=100, out_features=100, bias=True)
    (10): ReLU()
    (11): Dropout(p=0.2, inplace=False)
    (12): Linear(in_features=100, out_features=50, bias=True)
    (13): Linear(in_features=50, out_features=1, bias=True)
  )
)
Learning Rate: 0.0001883515972221876, weight decay: 0.044348213953226155, batch_size: 256

 Model params: 116472

epoch 0 -1.3272707502096175 3.637121678131765 0
epoch 1 -1.311193800504527 3.6245371608548815 0
epoch 2 -1.3079693360426656 3.62200788995197 0
epoch 3 -1.3088424217425372 3.622692912978604 0
epoch 4 -1.2929085002682137 3.6101706982595982 1
…
Prediction: 132567, NaN: 0, Max: 1.3962193727493286, Min: 1.3962193727493286, Mean: 1.3962193727493286

 XXXXXX======== TRIAL south - qso ended

Test Set - R-squared:  -1.3012363530803057
Test Set - RMSE:  3.6167208333038112
Test Set - MAE:  2.8529190595201412



Starting Loading south
Finished Loading south
Finished south setup

++++++++ Session Characteristics +++++++

Area: south
Gal Type: glbg
Training Set: 270812
Validation Set: 132567
Test Samples: 132567
Number of features: 5
Device: cuda:0
Number of Workers: 8

+++++++++++++++++++++++++++++++++++++++
VarMultiSetNet(
  (feature_extractor): Sequential(
    (0): Linear(in_features=5, out_features=200, bias=True)
    (1): ReLU()
    (2): Dropout(p=0.25, inplace=False)
    (3): Linear(in_features=200, out_features=200, bias=True)
    (4): ReLU()
    (5): Dropout(p=0.25, inplace=False)
    (6): Linear(in_features=200, out_features=400, bias=True)
    (7): ReLU()
  )
  (adder): InvLinear(in_features=400, out_features=1, bias=True, reduction=sum)
  (mlp): Sequential(
    (0): Linear(in_features=22, out_features=100, bias=True)
    (1): ReLU()
    (2): Dropout(p=0.25, inplace=False)
    (3): Linear(in_features=100, out_features=100, bias=True)
    (4): ReLU()
    (5): Dropout(p=0.25, inplace=False)
    (6): Linear(in_features=100, out_features=50, bias=True)
    (7): Linear(in_features=50, out_features=1, bias=True)
  )
)
Learning Rate: 0.00030735807502983687, weight decay: 0.2898483420649945, batch_size: 32

 Model params: 139702

epoch 0 -4.837842164670328 20.253593795523138 0
epoch 1 -4.806475396137107 20.199109156761093 0
epoch 2 -4.811734285660277 20.20825419186019 0
epoch 3 -4.876080739832239 20.319817279098174 1
epoch 4 -4.8409778702764905 20.259032515845668 2
…
Prediction: 132567, NaN: 0, Max: 3.2723007202148438, Min: 3.055485725402832, Mean: 3.100876217751984

 XXXXXX======== TRIAL south - glbg ended

Test Set - R-squared:  -4.83328368393592
Test Set - RMSE:  20.245684739002257
Test Set - MAE:  18.432971501025417



Starting Loading south
Finished Loading south
Finished south setup

++++++++ Session Characteristics +++++++

Area: south
Gal Type: rlbg
Training Set: 270812
Validation Set: 132567
Test Samples: 132567
Number of features: 5
Device: cuda:0
Number of Workers: 8

+++++++++++++++++++++++++++++++++++++++
VarMultiSetNet(
  (feature_extractor): Sequential(
    (0): Linear(in_features=5, out_features=150, bias=True)
    (1): ReLU()
    (2): Dropout(p=0.25, inplace=False)
    (3): Linear(in_features=150, out_features=150, bias=True)
    (4): ReLU()
    (5): Dropout(p=0.25, inplace=False)
    (6): Linear(in_features=150, out_features=150, bias=True)
    (7): ReLU()
    (8): Dropout(p=0.25, inplace=False)
    (9): Linear(in_features=150, out_features=150, bias=True)
    (10): ReLU()
    (11): Dropout(p=0.25, inplace=False)
    (12): Linear(in_features=150, out_features=300, bias=True)
    (13): ReLU()
  )
  (adder): InvLinear(in_features=300, out_features=1, bias=True, reduction=sum)
  (mlp): Sequential(
    (0): Linear(in_features=22, out_features=175, bias=True)
    (1): ReLU()
    (2): Dropout(p=0.05, inplace=False)
    (3): Linear(in_features=175, out_features=175, bias=True)
    (4): ReLU()
    (5): Dropout(p=0.05, inplace=False)
    (6): Linear(in_features=175, out_features=87, bias=True)
    (7): Linear(in_features=87, out_features=1, bias=True)
  )
)
Learning Rate: 0.00023951669569601602, weight decay: 0.12288462842525326, batch_size: 256

 Model params: 164676

epoch 0 -2.204044802781935 8.116073977955049 0
epoch 1 -2.124214363610307 8.01432811993489 0
epoch 2 -2.1447664667729223 8.040645344891233 0
epoch 3 -2.1060016843268623 7.990934121350891 1
epoch 4 -2.134866929879653 8.027979633807126 0
epoch 5 -2.1385411258754385 8.032682821151038 1
…
Prediction: 67698, NaN: 0, Max: 2.109673261642456, Min: 2.109673261642456, Mean: 2.109673261642456

 XXXXXX======== TRIAL des - lrg ended

Test Set - R-squared:  -2.0576042494575195
Test Set - RMSE:  7.361716964993836
Test Set - MAE:  6.0817018335526045



Starting Loading des
Finished Loading des
Finished des setup

++++++++ Session Characteristics +++++++

Area: des
Gal Type: elg
Training Set: 270781
Validation Set: 67698
Test Samples: 67698
Number of features: 5
Device: cuda:0
Number of Workers: 8

+++++++++++++++++++++++++++++++++++++++
VarMultiSetNet(
  (feature_extractor): Sequential(
    (0): Linear(in_features=5, out_features=150, bias=True)
    (1): ReLU()
    (2): Dropout(p=0.2, inplace=False)
    (3): Linear(in_features=150, out_features=150, bias=True)
    (4): ReLU()
    (5): Dropout(p=0.2, inplace=False)
    (6): Linear(in_features=150, out_features=150, bias=True)
    (7): ReLU()
    (8): Dropout(p=0.2, inplace=False)
    (9): Linear(in_features=150, out_features=150, bias=True)
    (10): ReLU()
    (11): Dropout(p=0.2, inplace=False)
    (12): Linear(in_features=150, out_features=350, bias=True)
    (13): ReLU()
  )
  (adder): InvLinear(in_features=350, out_features=1, bias=True, reduction=sum)
  (mlp): Sequential(
    (0): Linear(in_features=22, out_features=160, bias=True)
    (1): ReLU()
    (2): Dropout(p=0.25, inplace=False)
    (3): Linear(in_features=160, out_features=160, bias=True)
    (4): ReLU()
    (5): Dropout(p=0.25, inplace=False)
    (6): Linear(in_features=160, out_features=160, bias=True)
    (7): ReLU()
    (8): Dropout(p=0.25, inplace=False)
    (9): Linear(in_features=160, out_features=160, bias=True)
    (10): ReLU()
    (11): Dropout(p=0.25, inplace=False)
    (12): Linear(in_features=160, out_features=80, bias=True)
    (13): Linear(in_features=80, out_features=1, bias=True)
  )
)
Learning Rate: 9.342861572715064e-05, weight decay: 0.055109740552741496, batch_size: 32

 Model params: 215972

epoch 0 -14.786855585395175 28.65648193958311 0
epoch 1 -14.762392672638414 28.63427065135219 0
epoch 2 -14.738948532277348 28.612968185535177 0
epoch 3 -14.72720934513214 28.602295438115103 0
epoch 4 -14.739045492223365 28.613056320634296 0
…
Prediction: 67698, NaN: 0, Max: 3.42708420753479, Min: 3.42708420753479, Mean: 3.42708420753479

 XXXXXX======== TRIAL des - elg ended

Test Set - R-squared:  -14.763237057888762
Test Set - RMSE:  28.63503760445687
Test Set - MAE:  27.711871153037162



Starting Loading des
Finished Loading des
Finished des setup

++++++++ Session Characteristics +++++++

Area: des
Gal Type: qso
Training Set: 270781
Validation Set: 67698
Test Samples: 67698
Number of features: 5
Device: cuda:0
Number of Workers: 8

+++++++++++++++++++++++++++++++++++++++
VarMultiSetNet(
  (feature_extractor): Sequential(
    (0): Linear(in_features=5, out_features=150, bias=True)
    (1): ReLU()
    (2): Dropout(p=0.25, inplace=False)
    (3): Linear(in_features=150, out_features=150, bias=True)
    (4): ReLU()
    (5): Dropout(p=0.25, inplace=False)
    (6): Linear(in_features=150, out_features=20, bias=True)
    (7): ReLU()
  )
  (adder): InvLinear(in_features=20, out_features=1, bias=True, reduction=sum)
  (mlp): Sequential(
    (0): Linear(in_features=22, out_features=120, bias=True)
    (1): ReLU()
    (2): Dropout(p=0.4, inplace=False)
    (3): Linear(in_features=120, out_features=120, bias=True)
    (4): ReLU()
    (5): Dropout(p=0.4, inplace=False)
    (6): Linear(in_features=120, out_features=60, bias=True)
    (7): Linear(in_features=60, out_features=1, bias=True)
  )
)
Learning Rate: 0.005544184180774864, weight decay: 0.008298229989336776, batch_size: 32

 Model params: 51192

epoch 0 -1.0861318994834392 2.874165534478737 0
epoch 1 -1.2403334681043034 2.978497422691594 0
epoch 2 -1.2672035869926974 2.9963059399590035 1
epoch 3 -1.2263009709800117 2.9691547487984513 2
epoch 4 -1.2093458038919223 2.957826825824274 3
…
Prediction: 67698, NaN: 0, Max: 1.2121490240097046, Min: 1.2121490240097046, Mean: 1.2121490240097046

 XXXXXX======== TRIAL des - qso ended

Test Set - R-squared:  -1.2076849158878749
Test Set - RMSE:  2.956714835409783
Test Set - MAE:  2.3401584034497995



Starting Loading des
Finished Loading des
Finished des setup

++++++++ Session Characteristics +++++++

Area: des
Gal Type: glbg
Training Set: 270781
Validation Set: 67698
Test Samples: 67698
Number of features: 5
Device: cuda:0
Number of Workers: 8

+++++++++++++++++++++++++++++++++++++++
VarMultiSetNet(
  (feature_extractor): Sequential(
    (0): Linear(in_features=5, out_features=100, bias=True)
    (1): ReLU()
    (2): Dropout(p=0.25, inplace=False)
    (3): Linear(in_features=100, out_features=100, bias=True)
    (4): ReLU()
    (5): Dropout(p=0.25, inplace=False)
    (6): Linear(in_features=100, out_features=100, bias=True)
    (7): ReLU()
    (8): Dropout(p=0.25, inplace=False)
    (9): Linear(in_features=100, out_features=100, bias=True)
    (10): ReLU()
    (11): Dropout(p=0.25, inplace=False)
    (12): Linear(in_features=100, out_features=130, bias=True)
    (13): ReLU()
  )
  (adder): InvLinear(in_features=130, out_features=1, bias=True, reduction=sum)
  (mlp): Sequential(
    (0): Linear(in_features=22, out_features=100, bias=True)
    (1): ReLU()
    (2): Dropout(p=0.25, inplace=False)
    (3): Linear(in_features=100, out_features=100, bias=True)
    (4): ReLU()
    (5): Dropout(p=0.25, inplace=False)
    (6): Linear(in_features=100, out_features=100, bias=True)
    (7): ReLU()
    (8): Dropout(p=0.25, inplace=False)
    (9): Linear(in_features=100, out_features=100, bias=True)
    (10): ReLU()
    (11): Dropout(p=0.25, inplace=False)
    (12): Linear(in_features=100, out_features=50, bias=True)
    (13): Linear(in_features=50, out_features=1, bias=True)
  )
)
Learning Rate: 0.00014553858586568378, weight decay: 0.20049865047593457, batch_size: 32

 Model params: 81862

epoch 0 -7.600049489274896 27.926732224059773 0
epoch 1 -7.575621437801502 27.887041709556954 0
epoch 2 -7.575864690559852 27.887437223267693 0
epoch 3 -7.600530088754498 27.92751253267807 1
epoch 4 -7.588717155630455 27.908326552584263 2
epoch 5 -7.59447261535718 27.917675931899087 3
…
Prediction: 67698, NaN: 0, Max: 3.3948538303375244, Min: 3.3948538303375244, Mean: 3.3948538303375244

 XXXXXX======== TRIAL des - glbg ended

Test Set - R-squared:  -7.577641587789859
Test Set - RMSE:  27.89032617646299
Test Set - MAE:  26.21421570949616



Starting Loading des
Finished Loading des
Finished des setup

++++++++ Session Characteristics +++++++

Area: des
Gal Type: rlbg
Training Set: 270781
Validation Set: 67698
Test Samples: 67698
Number of features: 5
Device: cuda:0
Number of Workers: 8

+++++++++++++++++++++++++++++++++++++++
VarMultiSetNet(
  (feature_extractor): Sequential(
    (0): Linear(in_features=5, out_features=180, bias=True)
    (1): ReLU()
    (2): Dropout(p=0.25, inplace=False)
    (3): Linear(in_features=180, out_features=180, bias=True)
    (4): ReLU()
    (5): Dropout(p=0.25, inplace=False)
    (6): Linear(in_features=180, out_features=180, bias=True)
    (7): ReLU()
    (8): Dropout(p=0.25, inplace=False)
    (9): Linear(in_features=180, out_features=180, bias=True)
    (10): ReLU()
    (11): Dropout(p=0.25, inplace=False)
    (12): Linear(in_features=180, out_features=330, bias=True)
    (13): ReLU()
  )
  (adder): InvLinear(in_features=330, out_features=1, bias=True, reduction=sum)
  (mlp): Sequential(
    (0): Linear(in_features=22, out_features=200, bias=True)
    (1): ReLU()
    (2): Dropout(p=0.35, inplace=False)
    (3): Linear(in_features=200, out_features=200, bias=True)
    (4): ReLU()
    (5): Dropout(p=0.35, inplace=False)
    (6): Linear(in_features=200, out_features=100, bias=True)
    (7): Linear(in_features=100, out_features=1, bias=True)
  )
)
Learning Rate: 6.646267123877951e-05, weight decay: 0.003691296129378855, batch_size: 256

 Model params: 223882

epoch 0 -1.120679900812147 3.767015860976573 0
epoch 1 -1.0290008798776031 3.684690429572175 0
epoch 2 -0.9708025472144912 3.6314615158402823 0
epoch 3 -1.0301836183109159 3.685764206849162 0
epoch 4 -0.9914860281398716 3.650467788232153 1
…
