Starting Loading north
Finished Loading north
Finished north setup

++++++++ Session Characteristics +++++++

Area: north
Gal Type: lrg
Training Set: 78007
Validation Set: 19505
Test Samples: 19505
Number of features: 6
Device: cuda:0
Number of Workers: 8

+++++++++++++++++++++++++++++++++++++++
VarMultiSetNet(
  (feature_extractor): Sequential(
    (0): Linear(in_features=6, out_features=256, bias=True)
    (1): ReLU()
    (2): Dropout(p=0.25, inplace=False)
    (3): Linear(in_features=256, out_features=256, bias=True)
    (4): ReLU()
    (5): Dropout(p=0.25, inplace=False)
    (6): Linear(in_features=256, out_features=256, bias=True)
    (7): ReLU()
    (8): Dropout(p=0.25, inplace=False)
    (9): Linear(in_features=256, out_features=256, bias=True)
    (10): ReLU()
    (11): Dropout(p=0.25, inplace=False)
    (12): Linear(in_features=256, out_features=350, bias=True)
    (13): ReLU()
  )
  (adder): InvLinear(in_features=350, out_features=1, bias=True, reduction=sum)
  (mlp): Sequential(
    (0): Linear(in_features=66, out_features=256, bias=True)
    (1): ReLU()
    (2): Dropout(p=0.25, inplace=False)
    (3): Linear(in_features=256, out_features=256, bias=True)
    (4): ReLU()
    (5): Dropout(p=0.25, inplace=False)
    (6): Linear(in_features=256, out_features=256, bias=True)
    (7): ReLU()
    (8): Dropout(p=0.25, inplace=False)
    (9): Linear(in_features=256, out_features=256, bias=True)
    (10): ReLU()
    (11): Dropout(p=0.25, inplace=False)
    (12): Linear(in_features=256, out_features=128, bias=True)
    (13): Linear(in_features=128, out_features=1, bias=True)
  )
)
Learning Rate: 0.00012625840029965784, weight decay: 0.11966102805969332, batch_size: 256

 Model params: 537022

epoch 0 -0.4743517699479811 14.534053341713024 0
epoch 1 -0.14659314855455285 12.817132182296852 0
epoch 2 -0.00012733023088085105 11.97054268682552 0
epoch 3 -0.00746974602738204 12.01440308982587 0
epoch 4 0.007286011040075091 11.926094957530346 1
…
