Starting Loading north
Finished Loading north
Finished north setup

++++++++ Session Characteristics +++++++

Area: north
Gal Type: lrg
Training Set: 78007
Validation Set: 19505
Test Samples: 19505
Number of features: 6
Device: cuda:0
Number of Workers: 8

+++++++++++++++++++++++++++++++++++++++
VarMultiSetNet(
  (feature_extractor): Sequential(
    (0): Linear(in_features=6, out_features=60, bias=True)
    (1): ReLU()
    (2): Dropout(p=0.0, inplace=False)
    (3): Linear(in_features=60, out_features=60, bias=True)
    (4): ReLU()
    (5): Dropout(p=0.0, inplace=False)
    (6): Linear(in_features=60, out_features=120, bias=True)
    (7): ReLU()
  )
  (adder): InvLinear(in_features=120, out_features=1, bias=True, reduction=sum)
  (mlp): Sequential(
    (0): Linear(in_features=66, out_features=60, bias=True)
    (1): ReLU()
    (2): Dropout(p=0.0, inplace=False)
    (3): Linear(in_features=60, out_features=60, bias=True)
    (4): ReLU()
    (5): Dropout(p=0.0, inplace=False)
    (6): Linear(in_features=60, out_features=30, bias=True)
    (7): Linear(in_features=30, out_features=1, bias=True)
  )
)
Learning Rate: 0.00012625840029965784, weight decay: 0.11966102805969332, batch_size: 256

 Model params: 21062

epoch 0 -0.6161102995943595 15.216742485214725 0
epoch 1 -0.4095166246399733 14.210890507794028 0
epoch 2 -0.2870960183399922 13.579746581533865 0
epoch 3 -0.24703040376927854 13.366715763143104 0
epoch 4 -0.20445443950437459 13.136551731152503 0
…
Prediction 19505 0 42.85247802734375 14.035449981689453 34.03713671565209
[37.13718033 32.81822586 33.29800415 ... 32.6945076  33.1686821
 30.91647339]

 XXXXXX======== TRIAL north - lrg ended

Test Set - R-squared:  0.011223801373971276
Test Set - RMSE:  11.902417883385153
Test Set - MAE:  8.637900926051644



Starting Loading north
Finished Loading north
Finished north setup

++++++++ Session Characteristics +++++++

Area: north
Gal Type: elg
Training Set: 78007
Validation Set: 19505
Test Samples: 19505
Number of features: 6
Device: cuda:0
Number of Workers: 8

+++++++++++++++++++++++++++++++++++++++
VarMultiSetNet(
  (feature_extractor): Sequential(
    (0): Linear(in_features=6, out_features=60, bias=True)
    (1): ReLU()
    (2): Dropout(p=0.0, inplace=False)
    (3): Linear(in_features=60, out_features=60, bias=True)
    (4): ReLU()
    (5): Dropout(p=0.0, inplace=False)
    (6): Linear(in_features=60, out_features=60, bias=True)
    (7): ReLU()
  )
  (adder): InvLinear(in_features=60, out_features=1, bias=True, reduction=sum)
  (mlp): Sequential(
    (0): Linear(in_features=66, out_features=60, bias=True)
    (1): ReLU()
    (2): Dropout(p=0.0, inplace=False)
    (3): Linear(in_features=60, out_features=60, bias=True)
    (4): ReLU()
    (5): Dropout(p=0.0, inplace=False)
    (6): Linear(in_features=60, out_features=30, bias=True)
    (7): Linear(in_features=30, out_features=1, bias=True)
  )
)
Learning Rate: 0.0004377981116963404, weight decay: 0, batch_size: 32

 Model params: 17342

epoch 0 -0.4542126196965195 27.007700333449936 0
epoch 1 -0.0067870617638232655 22.47203820468475 0
epoch 2 0.11741635430733954 21.04028360751492 0
epoch 3 0.09891467626470274 21.259674444950367 0
epoch 4 0.14746181634688726 20.679049430069963 1
epoch 5 0.15364892947828024 20.60387590838045 0
…
