Starting Loading south
Finished Loading south
Finished south setup

++++++++ Session Characteristics +++++++

Area: south
Gal Type: qso
Training Set: 148560
Validation Set: 37139
Test Samples: 37139
Number of features: 6
Device: cuda:0
Number of Workers: 8

+++++++++++++++++++++++++++++++++++++++
VarMultiSetNet(
  (feature_extractor): Sequential(
    (0): Linear(in_features=6, out_features=256, bias=True)
    (1): ReLU()
    (2): Dropout(p=0.25, inplace=False)
    (3): Linear(in_features=256, out_features=256, bias=True)
    (4): ReLU()
    (5): Dropout(p=0.25, inplace=False)
    (6): Linear(in_features=256, out_features=256, bias=True)
    (7): ReLU()
    (8): Dropout(p=0.25, inplace=False)
    (9): Linear(in_features=256, out_features=256, bias=True)
    (10): ReLU()
    (11): Dropout(p=0.25, inplace=False)
    (12): Linear(in_features=256, out_features=350, bias=True)
    (13): ReLU()
  )
  (adder): InvLinear(in_features=350, out_features=1, bias=True, reduction=sum)
  (mlp): Sequential(
    (0): Linear(in_features=66, out_features=256, bias=True)
    (1): ReLU()
    (2): Dropout(p=0.25, inplace=False)
    (3): Linear(in_features=256, out_features=256, bias=True)
    (4): ReLU()
    (5): Dropout(p=0.25, inplace=False)
    (6): Linear(in_features=256, out_features=256, bias=True)
    (7): ReLU()
    (8): Dropout(p=0.25, inplace=False)
    (9): Linear(in_features=256, out_features=256, bias=True)
    (10): ReLU()
    (11): Dropout(p=0.25, inplace=False)
    (12): Linear(in_features=256, out_features=128, bias=True)
    (13): Linear(in_features=128, out_features=1, bias=True)
  )
)
Learning Rate: 0.0008379365544368044, weight decay: 0, batch_size: 256

 Model params: 537022

epoch 0 -0.17097827733076731 30.445661916050604 0
epoch 1 -0.8303510575224788 38.06433074947362 0
epoch 2 -0.7882978038542414 37.62451607386134 1
epoch 3 0.004875425229751373 28.066594934387666 2
epoch 4 -0.051900152304610536 28.856141579815116 0
epoch 5 0.05569499192566496 27.340543752016526 1
…
