Starting Loading north
Finished Loading north
Finished north setup

++++++++ Session Characteristics +++++++

Area: north
Gal Type: lrg
Training Set: 78007
Validation Set: 19505
Test Samples: 19505
Number of features: 6
Device: cuda:0
Number of Workers: 8

+++++++++++++++++++++++++++++++++++++++
VarMultiSetNet(
  (feature_extractor): Sequential(
    (0): Linear(in_features=6, out_features=140, bias=True)
    (1): ReLU()
    (2): Dropout(p=0.25, inplace=False)
    (3): Linear(in_features=140, out_features=140, bias=True)
    (4): ReLU()
    (5): Dropout(p=0.25, inplace=False)
    (6): Linear(in_features=140, out_features=240, bias=True)
    (7): ReLU()
  )
  (adder): InvLinear(in_features=240, out_features=1, bias=True, reduction=sum)
  (mlp): Sequential(
    (0): Linear(in_features=66, out_features=150, bias=True)
    (1): ReLU()
    (2): Dropout(p=0.2, inplace=False)
    (3): Linear(in_features=150, out_features=150, bias=True)
    (4): ReLU()
    (5): Dropout(p=0.2, inplace=False)
    (6): Linear(in_features=150, out_features=150, bias=True)
    (7): ReLU()
    (8): Dropout(p=0.2, inplace=False)
    (9): Linear(in_features=150, out_features=150, bias=True)
    (10): ReLU()
    (11): Dropout(p=0.2, inplace=False)
    (12): Linear(in_features=150, out_features=75, bias=True)
    (13): Linear(in_features=75, out_features=1, bias=True)
  )
)
Learning Rate: 0.00012625840029965784, weight decay: 0.11966102805969332, batch_size: 256

 Model params: 144202

epoch 0 -0.5096229231672227 14.70687607565062 0
epoch 1 -0.1567958812861301 12.874031246315015 0
epoch 2 -0.05808949728856372 12.312532611680668 0
epoch 3 -0.0656679611219042 12.35654760186089 0
epoch 4 -0.05580302434417583 12.29922206559872 1
…
Prediction 19505 0 43.5002326965332 24.51885223388672 35.3885432327689
[38.37322998 33.76840591 34.35644913 ... 33.31462097 34.19351196
 34.62304306]

 XXXXXX======== TRIAL north - lrg ended

Test Set - R-squared:  0.01969615237956235
Test Set - RMSE:  11.851315111949765
Test Set - MAE:  8.720751255116564



Starting Loading north
Finished Loading north
Finished north setup

++++++++ Session Characteristics +++++++

Area: north
Gal Type: elg
Training Set: 78007
Validation Set: 19505
Test Samples: 19505
Number of features: 6
Device: cuda:0
Number of Workers: 8

+++++++++++++++++++++++++++++++++++++++
VarMultiSetNet(
  (feature_extractor): Sequential(
    (0): Linear(in_features=6, out_features=190, bias=True)
    (1): ReLU()
    (2): Dropout(p=0.25, inplace=False)
    (3): Linear(in_features=190, out_features=190, bias=True)
    (4): ReLU()
    (5): Dropout(p=0.25, inplace=False)
    (6): Linear(in_features=190, out_features=60, bias=True)
    (7): ReLU()
  )
  (adder): InvLinear(in_features=60, out_features=1, bias=True, reduction=sum)
  (mlp): Sequential(
    (0): Linear(in_features=66, out_features=190, bias=True)
    (1): ReLU()
    (2): Dropout(p=0.35, inplace=False)
    (3): Linear(in_features=190, out_features=190, bias=True)
    (4): ReLU()
    (5): Dropout(p=0.35, inplace=False)
    (6): Linear(in_features=190, out_features=190, bias=True)
    (7): ReLU()
    (8): Dropout(p=0.35, inplace=False)
    (9): Linear(in_features=190, out_features=190, bias=True)
    (10): ReLU()
    (11): Dropout(p=0.35, inplace=False)
    (12): Linear(in_features=190, out_features=95, bias=True)
    (13): Linear(in_features=95, out_features=1, bias=True)
  )
)
Learning Rate: 0.0004377981116963404, weight decay: 0, batch_size: 32

 Model params: 188982

epoch 0 -0.1553136254583376 24.072633247689417 0
epoch 1 0.13974508786656314 20.77242656047846 0
epoch 2 -0.008792734954746972 22.494410929394533 0
epoch 3 0.17038130389067108 20.399189715148527 1
epoch 4 0.15599336224897786 20.575319260110415 0
epoch 5 0.1646272757357503 20.469809320265853 1
…
Prediction 19505 0 171.1717529296875 29.922866821289062 120.1728591318529
[100.29425049 127.9466095  116.57130432 ... 123.9054184  161.29689026
 119.37876892]

 XXXXXX======== TRIAL north - elg ended

Test Set - R-squared:  0.20596810596929493
Test Set - RMSE:  19.95687904846593
Test Set - MAE:  15.332415469320454



Starting Loading north
Finished Loading north
Finished north setup

++++++++ Session Characteristics +++++++

Area: north
Gal Type: qso
Training Set: 78007
Validation Set: 19505
Test Samples: 19505
Number of features: 6
Device: cuda:0
Number of Workers: 8

+++++++++++++++++++++++++++++++++++++++
VarMultiSetNet(
  (feature_extractor): Sequential(
    (0): Linear(in_features=6, out_features=100, bias=True)
    (1): ReLU()
    (2): Dropout(p=0.3, inplace=False)
    (3): Linear(in_features=100, out_features=100, bias=True)
    (4): ReLU()
    (5): Dropout(p=0.3, inplace=False)
    (6): Linear(in_features=100, out_features=490, bias=True)
    (7): ReLU()
  )
  (adder): InvLinear(in_features=490, out_features=1, bias=True, reduction=sum)
  (mlp): Sequential(
    (0): Linear(in_features=66, out_features=130, bias=True)
    (1): ReLU()
    (2): Dropout(p=0.225, inplace=False)
    (3): Linear(in_features=130, out_features=130, bias=True)
    (4): ReLU()
    (5): Dropout(p=0.225, inplace=False)
    (6): Linear(in_features=130, out_features=130, bias=True)
    (7): ReLU()
    (8): Dropout(p=0.225, inplace=False)
    (9): Linear(in_features=130, out_features=130, bias=True)
    (10): ReLU()
    (11): Dropout(p=0.225, inplace=False)
    (12): Linear(in_features=130, out_features=65, bias=True)
    (13): Linear(in_features=65, out_features=1, bias=True)
  )
)
Learning Rate: 0.0033982461411864624, weight decay: 0.006718087764096936, batch_size: 128

 Model params: 129162

epoch 0 -0.6031492784949073 36.7828040037107 0
epoch 1 -0.26920865936219784 32.728369097225006 0
epoch 2 -0.2915237049641528 33.01482822111358 0
epoch 3 -0.00434701104932711 29.113857152138063 1
epoch 4 0.11927899939852116 27.26321240585816 0
…
