Starting Loading north
Finished Loading north
Finished north setup

++++++++ Session Characteristics +++++++

Area: north
Gal Type: lrg
Training Set: 290439
Validation Set: 72610
Test Samples: 72610
Number of features: 5
Device: cuda:0
Number of Workers: 8

+++++++++++++++++++++++++++++++++++++++
VarMultiSetNet(
  (feature_extractor): Sequential(
    (0): Linear(in_features=5, out_features=256, bias=True)
    (1): ReLU()
    (2): Dropout(p=0.25, inplace=False)
    (3): Linear(in_features=256, out_features=256, bias=True)
    (4): ReLU()
    (5): Dropout(p=0.25, inplace=False)
    (6): Linear(in_features=256, out_features=256, bias=True)
    (7): ReLU()
    (8): Dropout(p=0.25, inplace=False)
    (9): Linear(in_features=256, out_features=256, bias=True)
    (10): ReLU()
    (11): Dropout(p=0.25, inplace=False)
    (12): Linear(in_features=256, out_features=350, bias=True)
    (13): ReLU()
  )
  (adder): InvLinear(in_features=350, out_features=1, bias=True, reduction=sum)
  (mlp): Sequential(
    (0): Linear(in_features=22, out_features=256, bias=True)
    (1): ReLU()
    (2): Dropout(p=0.25, inplace=False)
    (3): Linear(in_features=256, out_features=256, bias=True)
    (4): ReLU()
    (5): Dropout(p=0.25, inplace=False)
    (6): Linear(in_features=256, out_features=256, bias=True)
    (7): ReLU()
    (8): Dropout(p=0.25, inplace=False)
    (9): Linear(in_features=256, out_features=256, bias=True)
    (10): ReLU()
    (11): Dropout(p=0.25, inplace=False)
    (12): Linear(in_features=256, out_features=128, bias=True)
    (13): Linear(in_features=128, out_features=1, bias=True)
  )
)
Learning Rate: 0.0001546764411255828, weight decay: 0.03184751820920388, batch_size: 32

 Model params: 525502

epoch 0 -1.7561947573963148 8.084498441713984 0
epoch 1 -1.7362066001176304 8.055130366969129 0
epoch 2 -1.6997717658752167 8.001320302825706 0
epoch 3 -1.6986616069664726 7.9996750433130615 0
epoch 4 -1.705099506356086 8.00921133056048 0
…
