Starting Loading north
Finished Loading north
Finished north setup

++++++++ Session Characteristics +++++++

Area: north
Gal Type: lrg
Training Set: 290439
Validation Set: 72610
Test Samples: 72610
Number of features: 5
Device: cuda:0
Number of Workers: 8

+++++++++++++++++++++++++++++++++++++++
VarMultiSetNet(
  (feature_extractor): Sequential(
    (0): Linear(in_features=5, out_features=150, bias=True)
    (1): ReLU()
    (2): Dropout(p=0.3, inplace=False)
    (3): Linear(in_features=150, out_features=150, bias=True)
    (4): ReLU()
    (5): Dropout(p=0.3, inplace=False)
    (6): Linear(in_features=150, out_features=150, bias=True)
    (7): ReLU()
  )
  (adder): InvLinear(in_features=150, out_features=1, bias=True, reduction=sum)
  (mlp): Sequential(
    (0): Linear(in_features=22, out_features=100, bias=True)
    (1): ReLU()
    (2): Dropout(p=0.25, inplace=False)
    (3): Linear(in_features=100, out_features=100, bias=True)
    (4): ReLU()
    (5): Dropout(p=0.25, inplace=False)
    (6): Linear(in_features=100, out_features=100, bias=True)
    (7): ReLU()
    (8): Dropout(p=0.25, inplace=False)
    (9): Linear(in_features=100, out_features=100, bias=True)
    (10): ReLU()
    (11): Dropout(p=0.25, inplace=False)
    (12): Linear(in_features=100, out_features=50, bias=True)
    (13): Linear(in_features=50, out_features=1, bias=True)
  )
)
Learning Rate: 0.0001546764411255828, weight decay: 0.03184751820920388, batch_size: 32

 Model params: 84052

epoch 0 -1.7175564679687874 8.027631326026128 0
epoch 1 -1.7131822296385502 8.021167998617548 0
epoch 2 -1.7102356744786271 8.016811263172178 0
epoch 3 -1.6990012176638545 8.000178383514386 0
epoch 4 -1.6923275109410247 7.990281409570278 0
epoch 5 -1.6910647363093734 7.9884073604413395 0
…
Prediction: 72610, NaN: 0, Max: 2.1301469802856445, Min: 2.1301469802856445, Mean: 2.1301469802856445

 XXXXXX======== TRIAL north - lrg ended

Test Set - R-squared:  -1.7003526273597576
Test Set - RMSE:  8.002181006846444
Test Set - MAE:  6.387898555377876



Starting Loading north
Finished Loading north
Finished north setup

++++++++ Session Characteristics +++++++

Area: north
Gal Type: elg
Training Set: 290439
Validation Set: 72610
Test Samples: 72610
Number of features: 5
Device: cuda:0
Number of Workers: 8

+++++++++++++++++++++++++++++++++++++++
VarMultiSetNet(
  (feature_extractor): Sequential(
    (0): Linear(in_features=5, out_features=60, bias=True)
    (1): ReLU()
    (2): Dropout(p=0.1, inplace=False)
    (3): Linear(in_features=60, out_features=60, bias=True)
    (4): ReLU()
    (5): Dropout(p=0.1, inplace=False)
    (6): Linear(in_features=60, out_features=380, bias=True)
    (7): ReLU()
  )
  (adder): InvLinear(in_features=380, out_features=1, bias=True, reduction=sum)
  (mlp): Sequential(
    (0): Linear(in_features=22, out_features=100, bias=True)
    (1): ReLU()
    (2): Dropout(p=0.27, inplace=False)
    (3): Linear(in_features=100, out_features=100, bias=True)
    (4): ReLU()
    (5): Dropout(p=0.27, inplace=False)
    (6): Linear(in_features=100, out_features=100, bias=True)
    (7): ReLU()
    (8): Dropout(p=0.27, inplace=False)
    (9): Linear(in_features=100, out_features=100, bias=True)
    (10): ReLU()
    (11): Dropout(p=0.27, inplace=False)
    (12): Linear(in_features=100, out_features=50, bias=True)
    (13): Linear(in_features=50, out_features=1, bias=True)
  )
)
Learning Rate: 0.0004599944376425736, weight decay: 0.0738690886140696, batch_size: 32

 Model params: 65282

++++++++++++++++++++
        NaN         
++++++++++++++++++++
Target: 72610, NaN: 0, Max: 175.0, Min: 6.0, Mean: 31.337543038149015
Prediction: 72610, NaN: 72610, Max: nan, Min: nan, Mean: nan
++++++++++++++++++++
   NaN Predicted    
++++++++++++++++++++

 XXXXXX======== TRIAL north - elg ended

Test Set - R-squared:  0
Test Set - RMSE:  0
Test Set - MAE:  0



Starting Loading north
Finished Loading north
Finished north setup

++++++++ Session Characteristics +++++++

Area: north
Gal Type: qso
Training Set: 290439
Validation Set: 72610
Test Samples: 72610
Number of features: 5
Device: cuda:0
Number of Workers: 8

+++++++++++++++++++++++++++++++++++++++
VarMultiSetNet(
  (feature_extractor): Sequential(
    (0): Linear(in_features=5, out_features=175, bias=True)
    (1): ReLU()
    (2): Dropout(p=0.075, inplace=False)
    (3): Linear(in_features=175, out_features=175, bias=True)
    (4): ReLU()
    (5): Dropout(p=0.075, inplace=False)
    (6): Linear(in_features=175, out_features=250, bias=True)
    (7): ReLU()
  )
  (adder): InvLinear(in_features=250, out_features=1, bias=True, reduction=sum)
  (mlp): Sequential(
    (0): Linear(in_features=22, out_features=175, bias=True)
    (1): ReLU()
    (2): Dropout(p=0.25, inplace=False)
    (3): Linear(in_features=175, out_features=175, bias=True)
    (4): ReLU()
    (5): Dropout(p=0.25, inplace=False)
    (6): Linear(in_features=175, out_features=175, bias=True)
    (7): ReLU()
    (8): Dropout(p=0.25, inplace=False)
    (9): Linear(in_features=175, out_features=175, bias=True)
    (10): ReLU()
    (11): Dropout(p=0.25, inplace=False)
    (12): Linear(in_features=175, out_features=87, bias=True)
    (13): Linear(in_features=87, out_features=1, bias=True)
  )
)
Learning Rate: 0.0002129782693067251, weight decay: 0.01091575020984078, batch_size: 32

 Model params: 187926

epoch 0 -1.4503542086204448 3.874359255633098 0
epoch 1 -1.3532162684851619 3.7967882420373043 0
epoch 2 -1.4738854649991335 3.8929179415067034 0
epoch 3 -1.475866540847366 3.8944763447702213 1
epoch 4 -1.4229752261211615 3.8526534160283497 2
…
Prediction: 72610, NaN: 0, Max: 2.1444554328918457, Min: 1.3104281425476074, Mean: 1.4642863765644183

 XXXXXX======== TRIAL north - qso ended

Test Set - R-squared:  -1.4091943654699377
Test Set - RMSE:  3.841681659648915
Test Set - MAE:  3.086244252760406



Starting Loading north
Finished Loading north
Finished north setup

++++++++ Session Characteristics +++++++

Area: north
Gal Type: glbg
Training Set: 290439
Validation Set: 72610
Test Samples: 72610
Number of features: 5
Device: cuda:0
Number of Workers: 8

+++++++++++++++++++++++++++++++++++++++
VarMultiSetNet(
  (feature_extractor): Sequential(
    (0): Linear(in_features=5, out_features=70, bias=True)
    (1): ReLU()
    (2): Dropout(p=0.2, inplace=False)
    (3): Linear(in_features=70, out_features=70, bias=True)
    (4): ReLU()
    (5): Dropout(p=0.2, inplace=False)
    (6): Linear(in_features=70, out_features=100, bias=True)
    (7): ReLU()
  )
  (adder): InvLinear(in_features=100, out_features=1, bias=True, reduction=sum)
  (mlp): Sequential(
    (0): Linear(in_features=22, out_features=200, bias=True)
    (1): ReLU()
    (2): Dropout(p=0.25, inplace=False)
    (3): Linear(in_features=200, out_features=200, bias=True)
    (4): ReLU()
    (5): Dropout(p=0.25, inplace=False)
    (6): Linear(in_features=200, out_features=200, bias=True)
    (7): ReLU()
    (8): Dropout(p=0.25, inplace=False)
    (9): Linear(in_features=200, out_features=200, bias=True)
    (10): ReLU()
    (11): Dropout(p=0.25, inplace=False)
    (12): Linear(in_features=200, out_features=100, bias=True)
    (13): Linear(in_features=100, out_features=1, bias=True)
  )
)
Learning Rate: 0.0010669093353509024, weight decay: 0.12333702988885017, batch_size: 128

 Model params: 157992

epoch 0 -7.008377733085094 31.975833176133918 0
++++++++++++++++++++
        NaN         
++++++++++++++++++++
Target: 72610, NaN: 0, Max: 135.0, Min: 0.0, Mean: 30.72970665197631
Prediction: 72610, NaN: 72610, Max: nan, Min: nan, Mean: nan
++++++++++++++++++++
   NaN Predicted    
++++++++++++++++++++

 XXXXXX======== TRIAL north - glbg ended

Test Set - R-squared:  0
Test Set - RMSE:  0
Test Set - MAE:  0



Starting Loading north
Finished Loading north
Finished north setup

++++++++ Session Characteristics +++++++

Area: north
Gal Type: rlbg
Training Set: 290439
Validation Set: 72610
Test Samples: 72610
Number of features: 5
Device: cuda:0
Number of Workers: 8

+++++++++++++++++++++++++++++++++++++++
VarMultiSetNet(
  (feature_extractor): Sequential(
    (0): Linear(in_features=5, out_features=220, bias=True)
    (1): ReLU()
    (2): Dropout(p=0.3, inplace=False)
    (3): Linear(in_features=220, out_features=220, bias=True)
    (4): ReLU()
    (5): Dropout(p=0.3, inplace=False)
    (6): Linear(in_features=220, out_features=150, bias=True)
    (7): ReLU()
  )
  (adder): InvLinear(in_features=150, out_features=1, bias=True, reduction=sum)
  (mlp): Sequential(
    (0): Linear(in_features=22, out_features=100, bias=True)
    (1): ReLU()
    (2): Dropout(p=0.2, inplace=False)
    (3): Linear(in_features=100, out_features=100, bias=True)
    (4): ReLU()
    (5): Dropout(p=0.2, inplace=False)
    (6): Linear(in_features=100, out_features=100, bias=True)
    (7): ReLU()
    (8): Dropout(p=0.2, inplace=False)
    (9): Linear(in_features=100, out_features=100, bias=True)
    (10): ReLU()
    (11): Dropout(p=0.2, inplace=False)
    (12): Linear(in_features=100, out_features=50, bias=True)
    (13): Linear(in_features=50, out_features=1, bias=True)
  )
)
Learning Rate: 9.698438573821183e-05, weight decay: 0.23961834074306818, batch_size: 256

 Model params: 120942

epoch 0 -5.93792084724619 25.775598047369154 0
epoch 1 -5.897904907897274 25.70115742239757 0
epoch 2 -5.920055846691008 25.742390844655628 0
epoch 3 -5.9690555177904185 25.833368699595585 1
epoch 4 -5.9840273863975435 25.861103181961163 2
…
Prediction: 132567, NaN: 0, Max: 2.152858257293701, Min: 2.152858257293701, Mean: 2.152858257293701

 XXXXXX======== TRIAL south - lrg ended

Test Set - R-squared:  -1.7153810832667369
Test Set - RMSE:  8.078586403945481
Test Set - MAE:  6.457910434605899



Starting Loading south
Finished Loading south
Finished south setup

++++++++ Session Characteristics +++++++

Area: south
Gal Type: elg
Training Set: 270812
Validation Set: 132567
Test Samples: 132567
Number of features: 5
Device: cuda:0
Number of Workers: 8

+++++++++++++++++++++++++++++++++++++++
VarMultiSetNet(
  (feature_extractor): Sequential(
    (0): Linear(in_features=5, out_features=250, bias=True)
    (1): ReLU()
    (2): Dropout(p=0.25, inplace=False)
    (3): Linear(in_features=250, out_features=250, bias=True)
    (4): ReLU()
    (5): Dropout(p=0.25, inplace=False)
    (6): Linear(in_features=250, out_features=500, bias=True)
    (7): ReLU()
  )
  (adder): InvLinear(in_features=500, out_features=1, bias=True, reduction=sum)
  (mlp): Sequential(
    (0): Linear(in_features=22, out_features=175, bias=True)
    (1): ReLU()
    (2): Dropout(p=0.3, inplace=False)
    (3): Linear(in_features=175, out_features=175, bias=True)
    (4): ReLU()
    (5): Dropout(p=0.3, inplace=False)
    (6): Linear(in_features=175, out_features=175, bias=True)
    (7): ReLU()
    (8): Dropout(p=0.3, inplace=False)
    (9): Linear(in_features=175, out_features=175, bias=True)
    (10): ReLU()
    (11): Dropout(p=0.3, inplace=False)
    (12): Linear(in_features=175, out_features=87, bias=True)
    (13): Linear(in_features=87, out_features=1, bias=True)
  )
)
Learning Rate: 0.00018641861416175164, weight decay: 0.07947795784779363, batch_size: 256

 Model params: 302076

epoch 0 -16.222326256326816 32.88011031089482 0
epoch 1 -15.053064041468243 31.744341966935234 0
++++++++++++++++++++
        NaN         
++++++++++++++++++++
Target: 132567, NaN: 0, Max: 365.0, Min: 0.0, Mean: 32.88284414673335
Prediction: 132567, NaN: 132567, Max: nan, Min: nan, Mean: nan
++++++++++++++++++++
   NaN Predicted    
++++++++++++++++++++

 XXXXXX======== TRIAL south - elg ended

Test Set - R-squared:  0
Test Set - RMSE:  0
Test Set - MAE:  0



Starting Loading south
Finished Loading south
Finished south setup

++++++++ Session Characteristics +++++++

Area: south
Gal Type: qso
Training Set: 270812
Validation Set: 132567
Test Samples: 132567
Number of features: 5
Device: cuda:0
Number of Workers: 8

+++++++++++++++++++++++++++++++++++++++
VarMultiSetNet(
  (feature_extractor): Sequential(
    (0): Linear(in_features=5, out_features=200, bias=True)
    (1): ReLU()
    (2): Dropout(p=0.2, inplace=False)
    (3): Linear(in_features=200, out_features=200, bias=True)
    (4): ReLU()
    (5): Dropout(p=0.2, inplace=False)
    (6): Linear(in_features=200, out_features=185, bias=True)
    (7): ReLU()
  )
  (adder): InvLinear(in_features=185, out_features=1, bias=True, reduction=sum)
  (mlp): Sequential(
    (0): Linear(in_features=22, out_features=100, bias=True)
    (1): ReLU()
    (2): Dropout(p=0.2, inplace=False)
    (3): Linear(in_features=100, out_features=100, bias=True)
    (4): ReLU()
    (5): Dropout(p=0.2, inplace=False)
    (6): Linear(in_features=100, out_features=100, bias=True)
    (7): ReLU()
    (8): Dropout(p=0.2, inplace=False)
    (9): Linear(in_features=100, out_features=100, bias=True)
    (10): ReLU()
    (11): Dropout(p=0.2, inplace=False)
    (12): Linear(in_features=100, out_features=50, bias=True)
    (13): Linear(in_features=50, out_features=1, bias=True)
  )
)
Learning Rate: 0.0001883515972221876, weight decay: 0.044348213953226155, batch_size: 256

 Model params: 116472

epoch 0 -1.3061116584991694 3.6205499249128557 0
epoch 1 -1.3412938019938498 3.6480630233371674 0
epoch 2 -1.3012853381865503 3.6167593266361555 1
epoch 3 -1.3033161067653136 3.6183547788462223 0
epoch 4 -1.3137304608070903 3.626525678244508 1
…
Prediction: 132567, NaN: 0, Max: 1.825864553451538, Min: 1.2534418106079102, Mean: 1.339151581168904

 XXXXXX======== TRIAL south - qso ended

Test Set - R-squared:  -1.3566319373891274
Test Set - RMSE:  3.65999299601333
Test Set - MAE:  2.8977825810814726



Starting Loading south
Finished Loading south
Finished south setup

++++++++ Session Characteristics +++++++

Area: south
Gal Type: glbg
Training Set: 270812
Validation Set: 132567
Test Samples: 132567
Number of features: 5
Device: cuda:0
Number of Workers: 8

+++++++++++++++++++++++++++++++++++++++
VarMultiSetNet(
  (feature_extractor): Sequential(
    (0): Linear(in_features=5, out_features=200, bias=True)
    (1): ReLU()
    (2): Dropout(p=0.25, inplace=False)
    (3): Linear(in_features=200, out_features=200, bias=True)
    (4): ReLU()
    (5): Dropout(p=0.25, inplace=False)
    (6): Linear(in_features=200, out_features=400, bias=True)
    (7): ReLU()
  )
  (adder): InvLinear(in_features=400, out_features=1, bias=True, reduction=sum)
  (mlp): Sequential(
    (0): Linear(in_features=22, out_features=100, bias=True)
    (1): ReLU()
    (2): Dropout(p=0.25, inplace=False)
    (3): Linear(in_features=100, out_features=100, bias=True)
    (4): ReLU()
    (5): Dropout(p=0.25, inplace=False)
    (6): Linear(in_features=100, out_features=50, bias=True)
    (7): Linear(in_features=50, out_features=1, bias=True)
  )
)
Learning Rate: 0.00030735807502983687, weight decay: 0.2898483420649945, batch_size: 32

 Model params: 139702

epoch 0 -4.865943799114817 20.30228265829059 0
epoch 1 -4.839606969702485 20.256654938860436 0
epoch 2 -4.85608173049271 20.285208958129235 0
epoch 3 -4.876657443562458 20.32081439158087 1
epoch 4 -4.831404059370477 20.242422652462523 2
epoch 5 -4.8376421279714625 20.253246792586463 0
…
Prediction: 132567, NaN: 0, Max: 3.242643117904663, Min: 3.0289876461029053, Mean: 3.0738290185293193

 XXXXXX======== TRIAL south - glbg ended

Test Set - R-squared:  -4.847500885717853
Test Set - RMSE:  20.270341675907684
Test Set - MAE:  18.459972266030714



Starting Loading south
Finished Loading south
Finished south setup

++++++++ Session Characteristics +++++++

Area: south
Gal Type: rlbg
Training Set: 270812
Validation Set: 132567
Test Samples: 132567
Number of features: 5
Device: cuda:0
Number of Workers: 8

+++++++++++++++++++++++++++++++++++++++
VarMultiSetNet(
  (feature_extractor): Sequential(
    (0): Linear(in_features=5, out_features=150, bias=True)
    (1): ReLU()
    (2): Dropout(p=0.25, inplace=False)
    (3): Linear(in_features=150, out_features=150, bias=True)
    (4): ReLU()
    (5): Dropout(p=0.25, inplace=False)
    (6): Linear(in_features=150, out_features=150, bias=True)
    (7): ReLU()
    (8): Dropout(p=0.25, inplace=False)
    (9): Linear(in_features=150, out_features=150, bias=True)
    (10): ReLU()
    (11): Dropout(p=0.25, inplace=False)
    (12): Linear(in_features=150, out_features=300, bias=True)
    (13): ReLU()
  )
  (adder): InvLinear(in_features=300, out_features=1, bias=True, reduction=sum)
  (mlp): Sequential(
    (0): Linear(in_features=22, out_features=175, bias=True)
    (1): ReLU()
    (2): Dropout(p=0.05, inplace=False)
    (3): Linear(in_features=175, out_features=175, bias=True)
    (4): ReLU()
    (5): Dropout(p=0.05, inplace=False)
    (6): Linear(in_features=175, out_features=87, bias=True)
    (7): Linear(in_features=87, out_features=1, bias=True)
  )
)
Learning Rate: 0.00023951669569601602, weight decay: 0.12288462842525326, batch_size: 256

 Model params: 164676

epoch 0 -2.092517408741758 7.973569488145551 0
epoch 1 -2.1118153807689666 7.998409189180925 0
epoch 2 -2.1067661166783926 7.99191740361839 1
epoch 3 -2.1067651754088095 7.991916192946417 2
epoch 4 -2.120619375408111 8.009715807097647 3
epoch 5 -2.1189218453875607 8.007536979601111 4
…
Prediction: 67698, NaN: 0, Max: 2.104592800140381, Min: 2.104592800140381, Mean: 2.104592800140381

 XXXXXX======== TRIAL des - lrg ended

Test Set - R-squared:  -2.061067694058805
Test Set - RMSE:  7.365885209246591
Test Set - MAE:  6.086343876547558



Starting Loading des
Finished Loading des
Finished des setup

++++++++ Session Characteristics +++++++

Area: des
Gal Type: elg
Training Set: 270781
Validation Set: 67698
Test Samples: 67698
Number of features: 5
Device: cuda:0
Number of Workers: 8

+++++++++++++++++++++++++++++++++++++++
VarMultiSetNet(
  (feature_extractor): Sequential(
    (0): Linear(in_features=5, out_features=150, bias=True)
    (1): ReLU()
    (2): Dropout(p=0.2, inplace=False)
    (3): Linear(in_features=150, out_features=150, bias=True)
    (4): ReLU()
    (5): Dropout(p=0.2, inplace=False)
    (6): Linear(in_features=150, out_features=150, bias=True)
    (7): ReLU()
    (8): Dropout(p=0.2, inplace=False)
    (9): Linear(in_features=150, out_features=150, bias=True)
    (10): ReLU()
    (11): Dropout(p=0.2, inplace=False)
    (12): Linear(in_features=150, out_features=350, bias=True)
    (13): ReLU()
  )
  (adder): InvLinear(in_features=350, out_features=1, bias=True, reduction=sum)
  (mlp): Sequential(
    (0): Linear(in_features=22, out_features=160, bias=True)
    (1): ReLU()
    (2): Dropout(p=0.25, inplace=False)
    (3): Linear(in_features=160, out_features=160, bias=True)
    (4): ReLU()
    (5): Dropout(p=0.25, inplace=False)
    (6): Linear(in_features=160, out_features=160, bias=True)
    (7): ReLU()
    (8): Dropout(p=0.25, inplace=False)
    (9): Linear(in_features=160, out_features=160, bias=True)
    (10): ReLU()
    (11): Dropout(p=0.25, inplace=False)
    (12): Linear(in_features=160, out_features=80, bias=True)
    (13): Linear(in_features=80, out_features=1, bias=True)
  )
)
Learning Rate: 9.342861572715064e-05, weight decay: 0.055109740552741496, batch_size: 32

 Model params: 215972

epoch 0 -14.731625502983613 28.6063108798571 0
epoch 1 -14.746305195095918 28.619654507912795 0
epoch 2 -14.778792645465682 28.64916303427816 1
epoch 3 -14.767124234144767 28.638568052439833 2
epoch 4 -14.745905329297235 28.6192911181042 3
…
Prediction: 67698, NaN: 0, Max: 3.419780731201172, Min: 3.419780731201172, Mean: 3.419780731201172

 XXXXXX======== TRIAL des - elg ended

Test Set - R-squared:  -14.771019799101625
Test Set - RMSE:  28.642105682712618
Test Set - MAE:  27.71917462937078



Starting Loading des
Finished Loading des
Finished des setup

++++++++ Session Characteristics +++++++

Area: des
Gal Type: qso
Training Set: 270781
Validation Set: 67698
Test Samples: 67698
Number of features: 5
Device: cuda:0
Number of Workers: 8

+++++++++++++++++++++++++++++++++++++++
VarMultiSetNet(
  (feature_extractor): Sequential(
    (0): Linear(in_features=5, out_features=150, bias=True)
    (1): ReLU()
    (2): Dropout(p=0.25, inplace=False)
    (3): Linear(in_features=150, out_features=150, bias=True)
    (4): ReLU()
    (5): Dropout(p=0.25, inplace=False)
    (6): Linear(in_features=150, out_features=20, bias=True)
    (7): ReLU()
  )
  (adder): InvLinear(in_features=20, out_features=1, bias=True, reduction=sum)
  (mlp): Sequential(
    (0): Linear(in_features=22, out_features=120, bias=True)
    (1): ReLU()
    (2): Dropout(p=0.4, inplace=False)
    (3): Linear(in_features=120, out_features=120, bias=True)
    (4): ReLU()
    (5): Dropout(p=0.4, inplace=False)
    (6): Linear(in_features=120, out_features=60, bias=True)
    (7): Linear(in_features=60, out_features=1, bias=True)
  )
)
Learning Rate: 0.005544184180774864, weight decay: 0.008298229989336776, batch_size: 32

 Model params: 51192

epoch 0 -1.2200714018009338 2.96499773848977 0
epoch 1 -1.217821873363906 2.96349518835422 0
epoch 2 -1.2476458555253456 2.9833543299489276 0
epoch 3 -1.190333575690695 2.9450727376522665 1
epoch 4 -1.2031797306981469 2.953696435798555 0
epoch 5 -1.1996881310548 2.951354998425152 1
…
Prediction: 67698, NaN: 0, Max: 1.1721936464309692, Min: 1.1721936464309692, Mean: 1.1721936464309692

 XXXXXX======== TRIAL des - qso ended

Test Set - R-squared:  -1.2522188027466963
Test Set - RMSE:  2.986387679199894
Test Set - MAE:  2.3668850322759902



Starting Loading des
Finished Loading des
Finished des setup

++++++++ Session Characteristics +++++++

Area: des
Gal Type: glbg
Training Set: 270781
Validation Set: 67698
Test Samples: 67698
Number of features: 5
Device: cuda:0
Number of Workers: 8

+++++++++++++++++++++++++++++++++++++++
VarMultiSetNet(
  (feature_extractor): Sequential(
    (0): Linear(in_features=5, out_features=100, bias=True)
    (1): ReLU()
    (2): Dropout(p=0.25, inplace=False)
    (3): Linear(in_features=100, out_features=100, bias=True)
    (4): ReLU()
    (5): Dropout(p=0.25, inplace=False)
    (6): Linear(in_features=100, out_features=100, bias=True)
    (7): ReLU()
    (8): Dropout(p=0.25, inplace=False)
    (9): Linear(in_features=100, out_features=100, bias=True)
    (10): ReLU()
    (11): Dropout(p=0.25, inplace=False)
    (12): Linear(in_features=100, out_features=130, bias=True)
    (13): ReLU()
  )
  (adder): InvLinear(in_features=130, out_features=1, bias=True, reduction=sum)
  (mlp): Sequential(
    (0): Linear(in_features=22, out_features=100, bias=True)
    (1): ReLU()
    (2): Dropout(p=0.25, inplace=False)
    (3): Linear(in_features=100, out_features=100, bias=True)
    (4): ReLU()
    (5): Dropout(p=0.25, inplace=False)
    (6): Linear(in_features=100, out_features=100, bias=True)
    (7): ReLU()
    (8): Dropout(p=0.25, inplace=False)
    (9): Linear(in_features=100, out_features=100, bias=True)
    (10): ReLU()
    (11): Dropout(p=0.25, inplace=False)
    (12): Linear(in_features=100, out_features=50, bias=True)
    (13): Linear(in_features=50, out_features=1, bias=True)
  )
)
Learning Rate: 0.00014553858586568378, weight decay: 0.20049865047593457, batch_size: 32

 Model params: 81862

epoch 0 -7.586930990156487 27.905424403147073 0
epoch 1 -7.587138948539145 27.905762308028223 0
epoch 2 -7.586111312512534 27.904092495482097 1
epoch 3 -7.593469733358441 27.916047038963516 0
epoch 4 -7.574452500838703 27.885141013204578 1
…
Prediction: 67698, NaN: 0, Max: 3.3665695190429688, Min: 3.3665695190429688, Mean: 3.3665695190429688

 XXXXXX======== TRIAL des - glbg ended

Test Set - R-squared:  -7.594002488926604
Test Set - RMSE:  27.916912358762396
Test Set - MAE:  26.242499185188148



Starting Loading des
Finished Loading des
Finished des setup

++++++++ Session Characteristics +++++++

Area: des
Gal Type: rlbg
Training Set: 270781
Validation Set: 67698
Test Samples: 67698
Number of features: 5
Device: cuda:0
Number of Workers: 8

+++++++++++++++++++++++++++++++++++++++
VarMultiSetNet(
  (feature_extractor): Sequential(
    (0): Linear(in_features=5, out_features=180, bias=True)
    (1): ReLU()
    (2): Dropout(p=0.25, inplace=False)
    (3): Linear(in_features=180, out_features=180, bias=True)
    (4): ReLU()
    (5): Dropout(p=0.25, inplace=False)
    (6): Linear(in_features=180, out_features=180, bias=True)
    (7): ReLU()
    (8): Dropout(p=0.25, inplace=False)
    (9): Linear(in_features=180, out_features=180, bias=True)
    (10): ReLU()
    (11): Dropout(p=0.25, inplace=False)
    (12): Linear(in_features=180, out_features=330, bias=True)
    (13): ReLU()
  )
  (adder): InvLinear(in_features=330, out_features=1, bias=True, reduction=sum)
  (mlp): Sequential(
    (0): Linear(in_features=22, out_features=200, bias=True)
    (1): ReLU()
    (2): Dropout(p=0.35, inplace=False)
    (3): Linear(in_features=200, out_features=200, bias=True)
    (4): ReLU()
    (5): Dropout(p=0.35, inplace=False)
    (6): Linear(in_features=200, out_features=100, bias=True)
    (7): Linear(in_features=100, out_features=1, bias=True)
  )
)
Learning Rate: 6.646267123877951e-05, weight decay: 0.003691296129378855, batch_size: 256

 Model params: 223882

epoch 0 -1.2006058178370695 3.8373465061203964 0
epoch 1 -1.1960326608690361 3.8333571695372184 0
epoch 2 -1.2691050330418414 3.896612220414776 0
epoch 3 -1.1439534007522458 3.7876301024685413 1
epoch 4 -1.1726387539531054 3.812884498192975 0
…
