Starting Loading des
Finished Loading des
Finished des setup

++++++++ Session Characteristics +++++++

Area: des
Gal Type: lrg
Training Set: 69272
Validation Set: 17317
Test Samples: 17317
Number of features: 6
Device: cuda:0
Number of Workers: 8

+++++++++++++++++++++++++++++++++++++++
VarMultiSetNet(
  (feature_extractor): Sequential(
    (0): Linear(in_features=6, out_features=110, bias=True)
    (1): ReLU()
    (2): Dropout(p=0.35, inplace=False)
    (3): Linear(in_features=110, out_features=110, bias=True)
    (4): ReLU()
    (5): Dropout(p=0.35, inplace=False)
    (6): Linear(in_features=110, out_features=110, bias=True)
    (7): ReLU()
    (8): Dropout(p=0.35, inplace=False)
    (9): Linear(in_features=110, out_features=110, bias=True)
    (10): ReLU()
    (11): Dropout(p=0.35, inplace=False)
    (12): Linear(in_features=110, out_features=156, bias=True)
    (13): ReLU()
  )
  (adder): InvLinear(in_features=156, out_features=1, bias=True, reduction=sum)
  (mlp): Sequential(
    (0): Linear(in_features=66, out_features=160, bias=True)
    (1): ReLU()
    (2): Dropout(p=0.3, inplace=False)
    (3): Linear(in_features=160, out_features=160, bias=True)
    (4): ReLU()
    (5): Dropout(p=0.3, inplace=False)
    (6): Linear(in_features=160, out_features=80, bias=True)
    (7): Linear(in_features=80, out_features=1, bias=True)
  )
)
Learning Rate: 0.00471120213385988, weight decay: 0, batch_size: 128

 Model params: 104314

epoch 0 0.0013167541643357428 10.18890716686858 0
epoch 1 0.003230920082296196 10.179137996657557 0
epoch 2 -0.003077474849084272 10.2112982752816 0
epoch 3 0.0036468547299688403 10.177013985172533 1
epoch 4 0.001808129182289453 10.186400270687141 0
epoch 5 -0.10975645513027255 10.740575769747455 1
…
[166.75061035 166.5994873  173.88772583 ... 164.20515442 167.61627197
 172.6791687 ]

 XXXXXX======== TRIAL des - qso ended

Test Set - R-squared:  -0.008585192233105499
Test Set - RMSE:  24.714821429226085
Test Set - MAE:  19.419936998092723



Starting Loading south
Finished Loading south
Finished south setup

++++++++ Session Characteristics +++++++

Area: south
Gal Type: lrg
Training Set: 148560
Validation Set: 37139
Test Samples: 37139
Number of features: 6
Device: cuda:0
Number of Workers: 8

+++++++++++++++++++++++++++++++++++++++
VarMultiSetNet(
  (feature_extractor): Sequential(
    (0): Linear(in_features=6, out_features=130, bias=True)
    (1): ReLU()
    (2): Dropout(p=0.25, inplace=False)
    (3): Linear(in_features=130, out_features=130, bias=True)
    (4): ReLU()
    (5): Dropout(p=0.25, inplace=False)
    (6): Linear(in_features=130, out_features=130, bias=True)
    (7): ReLU()
    (8): Dropout(p=0.25, inplace=False)
    (9): Linear(in_features=130, out_features=130, bias=True)
    (10): ReLU()
    (11): Dropout(p=0.25, inplace=False)
    (12): Linear(in_features=130, out_features=270, bias=True)
    (13): ReLU()
  )
  (adder): InvLinear(in_features=270, out_features=1, bias=True, reduction=sum)
  (mlp): Sequential(
    (0): Linear(in_features=66, out_features=230, bias=True)
    (1): ReLU()
    (2): Dropout(p=0.2, inplace=False)
    (3): Linear(in_features=230, out_features=230, bias=True)
    (4): ReLU()
    (5): Dropout(p=0.2, inplace=False)
    (6): Linear(in_features=230, out_features=115, bias=True)
    (7): Linear(in_features=115, out_features=1, bias=True)
  )
)
Learning Rate: 7.458723170594822e-05, weight decay: 0, batch_size: 128

 Model params: 182862

epoch 0 -0.0537832064507211 12.13093900610492 0
epoch 1 -0.0036372904878672063 11.838786188885118 0
epoch 2 0.017193054903718696 11.715285882051353 0
epoch 3 0.016478559806860082 11.719543581687262 0
epoch 4 0.004607611319780158 11.790057965778722 1
epoch 5 0.019007924531097675 11.704464051134638 2
…
Prediction 37139 0 42.891761779785156 12.41167163848877 33.4445967929885
[34.34340286 32.44358826 34.31629562 ... 32.62797928 33.88346481
 32.96408463]

 XXXXXX======== TRIAL south - lrg ended

Test Set - R-squared:  0.0213885495970505
Test Set - RMSE:  11.690253505266675
Test Set - MAE:  8.477959321264773



Starting Loading south
Finished Loading south
Finished south setup

++++++++ Session Characteristics +++++++

Area: south
Gal Type: elg
Training Set: 148560
Validation Set: 37139
Test Samples: 37139
Number of features: 6
Device: cuda:0
Number of Workers: 8

+++++++++++++++++++++++++++++++++++++++
VarMultiSetNet(
  (feature_extractor): Sequential(
    (0): Linear(in_features=6, out_features=120, bias=True)
    (1): ReLU()
    (2): Dropout(p=0.18, inplace=False)
    (3): Linear(in_features=120, out_features=120, bias=True)
    (4): ReLU()
    (5): Dropout(p=0.18, inplace=False)
    (6): Linear(in_features=120, out_features=120, bias=True)
    (7): ReLU()
    (8): Dropout(p=0.18, inplace=False)
    (9): Linear(in_features=120, out_features=120, bias=True)
    (10): ReLU()
    (11): Dropout(p=0.18, inplace=False)
    (12): Linear(in_features=120, out_features=210, bias=True)
    (13): ReLU()
  )
  (adder): InvLinear(in_features=210, out_features=1, bias=True, reduction=sum)
  (mlp): Sequential(
    (0): Linear(in_features=66, out_features=200, bias=True)
    (1): ReLU()
    (2): Dropout(p=0.25, inplace=False)
    (3): Linear(in_features=200, out_features=200, bias=True)
    (4): ReLU()
    (5): Dropout(p=0.25, inplace=False)
    (6): Linear(in_features=200, out_features=200, bias=True)
    (7): ReLU()
    (8): Dropout(p=0.25, inplace=False)
    (9): Linear(in_features=200, out_features=200, bias=True)
    (10): ReLU()
    (11): Dropout(p=0.25, inplace=False)
    (12): Linear(in_features=200, out_features=100, bias=True)
    (13): Linear(in_features=100, out_features=1, bias=True)
  )
)
Learning Rate: 0.0012133886263240518, weight decay: 0, batch_size: 256

 Model params: 224222

epoch 0 0.027697235406250797 22.931633848942138 0
epoch 1 0.024828518767376906 22.96543808682719 0
epoch 2 0.10199239125354331 22.038104935981963 1
epoch 3 0.10918192568926088 21.94970806855823 0
epoch 4 0.09192151722892805 22.161335622495006 0
epoch 5 0.133299498452079 21.650541472905154 1
…
[119.58545685 150.36256409 130.76522827 ... 130.01728821 124.61232758
 143.93240356]

 XXXXXX======== TRIAL south - elg ended

Test Set - R-squared:  0.21660721352537726
Test Set - RMSE:  20.583727441799383
Test Set - MAE:  16.07479864638316



Starting Loading south
Finished Loading south
Finished south setup

++++++++ Session Characteristics +++++++

Area: south
Gal Type: qso
Training Set: 148560
Validation Set: 37139
Test Samples: 37139
Number of features: 6
Device: cuda:0
Number of Workers: 8

+++++++++++++++++++++++++++++++++++++++
VarMultiSetNet(
  (feature_extractor): Sequential(
    (0): Linear(in_features=6, out_features=110, bias=True)
    (1): ReLU()
    (2): Dropout(p=0.25, inplace=False)
    (3): Linear(in_features=110, out_features=110, bias=True)
    (4): ReLU()
    (5): Dropout(p=0.25, inplace=False)
    (6): Linear(in_features=110, out_features=200, bias=True)
    (7): ReLU()
  )
  (adder): InvLinear(in_features=200, out_features=1, bias=True, reduction=sum)
  (mlp): Sequential(
    (0): Linear(in_features=66, out_features=110, bias=True)
    (1): ReLU()
    (2): Dropout(p=0.35, inplace=False)
    (3): Linear(in_features=110, out_features=110, bias=True)
    (4): ReLU()
    (5): Dropout(p=0.35, inplace=False)
    (6): Linear(in_features=110, out_features=110, bias=True)
    (7): ReLU()
    (8): Dropout(p=0.35, inplace=False)
    (9): Linear(in_features=110, out_features=110, bias=True)
    (10): ReLU()
    (11): Dropout(p=0.35, inplace=False)
    (12): Linear(in_features=110, out_features=55, bias=True)
    (13): Linear(in_features=55, out_features=1, bias=True)
  )
)
Learning Rate: 0.0008379365544368044, weight decay: 0, batch_size: 256

 Model params: 85542

epoch 0 -11.01105561151126 97.50830116595274 0
epoch 1 -5.532351963899789 71.90942058485452 0
epoch 2 -1.469613632276563 44.2145804159178 0
epoch 3 -0.8478210336078904 38.24555383315981 0
epoch 4 -0.6966479360737385 36.647712158552196 0
epoch 5 -0.3087045138251261 32.18635531686074 0
…
