…
    mlp_n_units_l0: 67
    mlp_dropout_l0: 0.06462279893253996
    mlp_n_units_l1: 59
    mlp_dropout_l1: 0.032833708213306056
    reduction: mean
    lr: 0.003340056218765017
    criterion: MSELoss
    batch_size: 32
    no_epochs: 176
++++++++ Session Characteristics +++++++

Gal Type: qso
Training Samples: 2008
Validation Samples: 990
Maximum Set Lengths: 30
Device: cuda:0
Number of Workers: 8
Number of Trials: 200

+++++++++++++++++++++++++++++++++++++++
Model params: 43386.
Model params: 22407.
++++++++++++++++++++

NaN in epoch 0

VarMultiSetNet(
  (feature_extractor): Sequential(
    (0): Linear(in_features=15, out_features=104, bias=True)
    (1): ReLU()
    (2): Dropout(p=0.05217686522262114, inplace=False)
    (3): Linear(in_features=104, out_features=110, bias=True)
    (4): ReLU()
    (5): Dropout(p=0.13767715939920958, inplace=False)
    (6): Linear(in_features=110, out_features=50, bias=True)
    (7): ReLU()
  )
  (adder): InvLinear(in_features=50, out_features=1, bias=True, reduction=mean)
  (mlp): Sequential(
    (0): Linear(in_features=66, out_features=23, bias=True)
    (1): ReLU()
    (2): Dropout(p=0.11108373941607844, inplace=False)
    (3): Linear(in_features=23, out_features=82, bias=True)
    (4): ReLU()
    (5): Dropout(p=0.1831503872877236, inplace=False)
    (6): Linear(in_features=82, out_features=1, bias=True)
    (7): ReLU()
  )
)

++++++++++++++++++++
Model params: 54024.
++++++++++++++++++++

NaN in epoch 0

VarMultiSetNet(
  (feature_extractor): Sequential(
    (0): Linear(in_features=15, out_features=9, bias=True)
    (1): ReLU()
    (2): Dropout(p=0.2567939281256686, inplace=False)
    (3): Linear(in_features=9, out_features=97, bias=True)
    (4): ReLU()
    (5): Dropout(p=0.01723071117085334, inplace=False)
    (6): Linear(in_features=97, out_features=64, bias=True)
    (7): ReLU()
    (8): Dropout(p=0.12832878473843667, inplace=False)
    (9): Linear(in_features=64, out_features=100, bias=True)
    (10): ReLU()
    (11): Dropout(p=0.236874061442953, inplace=False)
    (12): Linear(in_features=100, out_features=35, bias=True)
    (13): ReLU()
  )
  (adder): InvLinear(in_features=35, out_features=1, bias=True, reduction=mean)
  (mlp): Sequential(
    (0): Linear(in_features=66, out_features=115, bias=True)
    (1): ReLU()
    (2): Dropout(p=0.2141158108252498, inplace=False)
    (3): Linear(in_features=115, out_features=122, bias=True)
    (4): ReLU()
    (5): Dropout(p=0.247733489166551, inplace=False)
    (6): Linear(in_features=122, out_features=27, bias=True)
    (7): ReLU()
    (8): Dropout(p=0.17356390468603827, inplace=False)
    (9): Linear(in_features=27, out_features=119, bias=True)
    (10): ReLU()
    (11): Dropout(p=0.1002420969387723, inplace=False)
    (12): Linear(in_features=119, out_features=10, bias=True)
    (13): ReLU()
    (14): Dropout(p=0.1763739688825398, inplace=False)
    (15): Linear(in_features=10, out_features=14, bias=True)
    (16): ReLU()
    (17): Dropout(p=0.1665372263802719, inplace=False)
    (18): Linear(in_features=14, out_features=66, bias=True)
    (19): ReLU()
    (20): Dropout(p=0.28399585248510145, inplace=False)
    (21): Linear(in_features=66, out_features=84, bias=True)
    (22): ReLU()
    (23): Dropout(p=0.041029055005362136, inplace=False)
    (24): Linear(in_features=84, out_features=1, bias=True)
    (25): ReLU()
  )
)

++++++++++++++++++++
Model params: 39540.
Model params: 33126.
Model params: 33277.
++++++++++++++++++++

NaN in epoch 0

VarMultiSetNet(
  (feature_extractor): Sequential(
    (0): Linear(in_features=15, out_features=84, bias=True)
    (1): ReLU()
    (2): Dropout(p=0.04173403269882261, inplace=False)
    (3): Linear(in_features=84, out_features=63, bias=True)
    (4): ReLU()
    (5): Dropout(p=0.2568221585802993, inplace=False)
    (6): Linear(in_features=63, out_features=25, bias=True)
    (7): ReLU()
    (8): Dropout(p=0.2512345110156497, inplace=False)
    (9): Linear(in_features=25, out_features=67, bias=True)
    (10): ReLU()
    (11): Dropout(p=0.07826561718719095, inplace=False)
    (12): Linear(in_features=67, out_features=28, bias=True)
    (13): ReLU()
  )
  (adder): InvLinear(in_features=28, out_features=1, bias=True, reduction=mean)
  (mlp): Sequential(
    (0): Linear(in_features=66, out_features=29, bias=True)
    (1): ReLU()
    (2): Dropout(p=0.1672010232028324, inplace=False)
    (3): Linear(in_features=29, out_features=13, bias=True)
    (4): ReLU()
    (5): Dropout(p=0.23394704876382244, inplace=False)
    (6): Linear(in_features=13, out_features=44, bias=True)
    (7): ReLU()
    (8): Dropout(p=0.21992300309467624, inplace=False)
    (9): Linear(in_features=44, out_features=101, bias=True)
    (10): ReLU()
    (11): Dropout(p=0.04487879340182841, inplace=False)
    (12): Linear(in_features=101, out_features=122, bias=True)
    (13): ReLU()
    (14): Dropout(p=0.12558710558385802, inplace=False)
    (15): Linear(in_features=122, out_features=11, bias=True)
    (16): ReLU()
    (17): Dropout(p=0.031140098774194623, inplace=False)
    (18): Linear(in_features=11, out_features=1, bias=True)
    (19): ReLU()
  )
)

++++++++++++++++++++
Model params: 70576.
++++++++++++++++++++

NaN in epoch 0

VarMultiSetNet(
  (feature_extractor): Sequential(
    (0): Linear(in_features=15, out_features=74, bias=True)
    (1): ReLU()
    (2): Dropout(p=0.21875568429760175, inplace=False)
    (3): Linear(in_features=74, out_features=93, bias=True)
    (4): ReLU()
    (5): Dropout(p=0.2268686777591839, inplace=False)
    (6): Linear(in_features=93, out_features=84, bias=True)
    (7): ReLU()
    (8): Dropout(p=0.13585241903914982, inplace=False)
    (9): Linear(in_features=84, out_features=39, bias=True)
    (10): ReLU()
    (11): Dropout(p=0.14446019369767427, inplace=False)
    (12): Linear(in_features=39, out_features=33, bias=True)
    (13): ReLU()
    (14): Dropout(p=0.17505266204431766, inplace=False)
    (15): Linear(in_features=33, out_features=27, bias=True)
    (16): ReLU()
    (17): Dropout(p=0.24639446139080393, inplace=False)
    (18): Linear(in_features=27, out_features=53, bias=True)
    (19): ReLU()
    (20): Dropout(p=0.1470147561242677, inplace=False)
    (21): Linear(in_features=53, out_features=111, bias=True)
    (22): ReLU()
    (23): Dropout(p=0.14120565102409696, inplace=False)
    (24): Linear(in_features=111, out_features=19, bias=True)
    (25): ReLU()
  )
  (adder): InvLinear(in_features=19, out_features=1, bias=True, reduction=mean)
  (mlp): Sequential(
    (0): Linear(in_features=66, out_features=91, bias=True)
    (1): ReLU()
    (2): Dropout(p=0.08881280488891517, inplace=False)
    (3): Linear(in_features=91, out_features=122, bias=True)
    (4): ReLU()
    (5): Dropout(p=0.22738622199634873, inplace=False)
    (6): Linear(in_features=122, out_features=45, bias=True)
    (7): ReLU()
    (8): Dropout(p=0.17746493411708833, inplace=False)
    (9): Linear(in_features=45, out_features=37, bias=True)
    (10): ReLU()
    (11): Dropout(p=0.0962330092355448, inplace=False)
    (12): Linear(in_features=37, out_features=125, bias=True)
    (13): ReLU()
    (14): Dropout(p=0.15699396975419966, inplace=False)
    (15): Linear(in_features=125, out_features=79, bias=True)
    (16): ReLU()
    (17): Dropout(p=0.24974446919322577, inplace=False)
    (18): Linear(in_features=79, out_features=1, bias=True)
    (19): ReLU()
  )
)

++++++++++++++++++++
Model params: 28132.
++++++++++++++++++++

NaN in epoch 0

VarMultiSetNet(
  (feature_extractor): Sequential(
    (0): Linear(in_features=15, out_features=121, bias=True)
    (1): ReLU()
    (2): Dropout(p=0.29210232259978564, inplace=False)
    (3): Linear(in_features=121, out_features=50, bias=True)
    (4): ReLU()
    (5): Dropout(p=0.1722304698983492, inplace=False)
    (6): Linear(in_features=50, out_features=59, bias=True)
    (7): ReLU()
  )
  (adder): InvLinear(in_features=59, out_features=1, bias=True, reduction=mean)
  (mlp): Sequential(
    (0): Linear(in_features=66, out_features=108, bias=True)
    (1): ReLU()
    (2): Dropout(p=0.1700271976890137, inplace=False)
    (3): Linear(in_features=108, out_features=89, bias=True)
    (4): ReLU()
    (5): Dropout(p=0.2810172653131896, inplace=False)
    (6): Linear(in_features=89, out_features=1, bias=True)
    (7): ReLU()
  )
)

++++++++++++++++++++
Model params: 53013.
++++++++++++++++++++

NaN in epoch 0

VarMultiSetNet(
  (feature_extractor): Sequential(
    (0): Linear(in_features=15, out_features=69, bias=True)
    (1): ReLU()
    (2): Dropout(p=0.011081547733956408, inplace=False)
    (3): Linear(in_features=69, out_features=113, bias=True)
    (4): ReLU()
    (5): Dropout(p=0.2998703847408745, inplace=False)
    (6): Linear(in_features=113, out_features=22, bias=True)
    (7): ReLU()
  )
  (adder): InvLinear(in_features=22, out_features=1, bias=True, reduction=mean)
  (mlp): Sequential(
    (0): Linear(in_features=66, out_features=53, bias=True)
    (1): ReLU()
    (2): Dropout(p=0.10925245922140257, inplace=False)
    (3): Linear(in_features=53, out_features=44, bias=True)
    (4): ReLU()
    (5): Dropout(p=0.09732602043684373, inplace=False)
    (6): Linear(in_features=44, out_features=97, bias=True)
    (7): ReLU()
    (8): Dropout(p=0.10268902699428795, inplace=False)
    (9): Linear(in_features=97, out_features=127, bias=True)
    (10): ReLU()
    (11): Dropout(p=0.23921488602743035, inplace=False)
    (12): Linear(in_features=127, out_features=86, bias=True)
    (13): ReLU()
    (14): Dropout(p=0.039464634130553344, inplace=False)
    (15): Linear(in_features=86, out_features=67, bias=True)
    (16): ReLU()
    (17): Dropout(p=0.023290514630874646, inplace=False)
    (18): Linear(in_features=67, out_features=10, bias=True)
    (19): ReLU()
    (20): Dropout(p=0.028607367691655148, inplace=False)
    (21): Linear(in_features=10, out_features=101, bias=True)
    (22): ReLU()
    (23): Dropout(p=0.148160421402946, inplace=False)
    (24): Linear(in_features=101, out_features=1, bias=True)
    (25): ReLU()
  )
)

++++++++++++++++++++
Model params: 70436.
Model params: 96406.
Model params: 71561.
Model params: 50644.
Model params: 38407.
Model params: 50582.
Model params: 29175.
Model params: 19644.
Model params: 51008.
Model params: 39843.
Model params: 38557.
Model params: 34217.
Model params: 54104.
Model params: 57373.
Model params: 57896.
Model params: 63411.
Model params: 67132.
Model params: 44425.
Model params: 30723.
Model params: 50667.
Model params: 14224.
Model params: 73775.
Model params: 46590.
Model params: 46241.
Model params: 49607.
Model params: 50824.
Model params: 55118.
Model params: 50090.
++++++++++++++++++++

NaN in epoch 0

VarMultiSetNet(
  (feature_extractor): Sequential(
    (0): Linear(in_features=15, out_features=79, bias=True)
    (1): ReLU()
    (2): Dropout(p=0.04465944888565571, inplace=False)
    (3): Linear(in_features=79, out_features=100, bias=True)
    (4): ReLU()
    (5): Dropout(p=0.07725544040526232, inplace=False)
    (6): Linear(in_features=100, out_features=53, bias=True)
    (7): ReLU()
  )
  (adder): InvLinear(in_features=53, out_features=1, bias=True, reduction=mean)
  (mlp): Sequential(
    (0): Linear(in_features=66, out_features=45, bias=True)
    (1): ReLU()
    (2): Dropout(p=0.0617549803257591, inplace=False)
    (3): Linear(in_features=45, out_features=63, bias=True)
    (4): ReLU()
    (5): Dropout(p=0.05404569038679144, inplace=False)
    (6): Linear(in_features=63, out_features=91, bias=True)
    (7): ReLU()
    (8): Dropout(p=0.18319093781367035, inplace=False)
    (9): Linear(in_features=91, out_features=77, bias=True)
    (10): ReLU()
    (11): Dropout(p=0.08367636025372449, inplace=False)
    (12): Linear(in_features=77, out_features=8, bias=True)
    (13): ReLU()
    (14): Dropout(p=0.006864134842967606, inplace=False)
    (15): Linear(in_features=8, out_features=105, bias=True)
    (16): ReLU()
    (17): Dropout(p=0.2877934820257288, inplace=False)
    (18): Linear(in_features=105, out_features=125, bias=True)
    (19): ReLU()
    (20): Dropout(p=0.10980343342328455, inplace=False)
    (21): Linear(in_features=125, out_features=14, bias=True)
    (22): ReLU()
    (23): Dropout(p=0.2860460392409913, inplace=False)
    (24): Linear(in_features=14, out_features=1, bias=True)
    (25): ReLU()
  )
)

++++++++++++++++++++
Model params: 71846.
Model params: 18383.
++++++++++++++++++++

NaN in epoch 0

VarMultiSetNet(
  (feature_extractor): Sequential(
    (0): Linear(in_features=15, out_features=75, bias=True)
    (1): ReLU()
    (2): Dropout(p=0.03283228519841819, inplace=False)
    (3): Linear(in_features=75, out_features=95, bias=True)
    (4): ReLU()
    (5): Dropout(p=0.162576621893607, inplace=False)
    (6): Linear(in_features=95, out_features=48, bias=True)
    (7): ReLU()
  )
  (adder): InvLinear(in_features=48, out_features=1, bias=True, reduction=mean)
  (mlp): Sequential(
    (0): Linear(in_features=66, out_features=35, bias=True)
    (1): ReLU()
    (2): Dropout(p=0.07888455322721236, inplace=False)
    (3): Linear(in_features=35, out_features=80, bias=True)
    (4): ReLU()
    (5): Dropout(p=0.05798847272358665, inplace=False)
    (6): Linear(in_features=80, out_features=1, bias=True)
    (7): ReLU()
  )
)

++++++++++++++++++++
Model params: 48656.
Model params: 59218.
++++++++++++++++++++

NaN in epoch 0

VarMultiSetNet(
  (feature_extractor): Sequential(
    (0): Linear(in_features=15, out_features=91, bias=True)
    (1): ReLU()
    (2): Dropout(p=0.04447386793352373, inplace=False)
    (3): Linear(in_features=91, out_features=108, bias=True)
    (4): ReLU()
    (5): Dropout(p=0.08129168785930434, inplace=False)
    (6): Linear(in_features=108, out_features=43, bias=True)
    (7): ReLU()
  )
  (adder): InvLinear(in_features=43, out_features=1, bias=True, reduction=mean)
  (mlp): Sequential(
    (0): Linear(in_features=66, out_features=85, bias=True)
    (1): ReLU()
    (2): Dropout(p=0.16577999693026396, inplace=False)
    (3): Linear(in_features=85, out_features=103, bias=True)
    (4): ReLU()
    (5): Dropout(p=0.16497645968374097, inplace=False)
    (6): Linear(in_features=103, out_features=80, bias=True)
    (7): ReLU()
    (8): Dropout(p=0.1603359580529614, inplace=False)
    (9): Linear(in_features=80, out_features=72, bias=True)
    (10): ReLU()
    (11): Dropout(p=0.0020195467480778467, inplace=False)
    (12): Linear(in_features=72, out_features=93, bias=True)
    (13): ReLU()
    (14): Dropout(p=0.2919354618086828, inplace=False)
    (15): Linear(in_features=93, out_features=80, bias=True)
    (16): ReLU()
    (17): Dropout(p=0.245138102006323, inplace=False)
    (18): Linear(in_features=80, out_features=1, bias=True)
    (19): ReLU()
  )
)

++++++++++++++++++++
Model params: 37660.
Model params: 44001.
Model params: 39192.
Model params: 54070.
Model params: 46717.
Model params: 58033.
Model params: 43233.
Model params: 31237.
Model params: 46877.
Model params: 29372.
++++++++++++++++++++

NaN in epoch 0

VarMultiSetNet(
  (feature_extractor): Sequential(
    (0): Linear(in_features=15, out_features=28, bias=True)
    (1): ReLU()
    (2): Dropout(p=0.01357628802490271, inplace=False)
    (3): Linear(in_features=28, out_features=60, bias=True)
    (4): ReLU()
    (5): Dropout(p=0.13868351132291912, inplace=False)
    (6): Linear(in_features=60, out_features=33, bias=True)
    (7): ReLU()
    (8): Dropout(p=0.20595055235998155, inplace=False)
    (9): Linear(in_features=33, out_features=67, bias=True)
    (10): ReLU()
    (11): Dropout(p=0.12111562390322891, inplace=False)
    (12): Linear(in_features=67, out_features=32, bias=True)
    (13): ReLU()
    (14): Dropout(p=0.20630911789930373, inplace=False)
    (15): Linear(in_features=32, out_features=71, bias=True)
    (16): ReLU()
    (17): Dropout(p=0.10629460464470875, inplace=False)
    (18): Linear(in_features=71, out_features=59, bias=True)
    (19): ReLU()
  )
  (adder): InvLinear(in_features=59, out_features=1, bias=True, reduction=mean)
  (mlp): Sequential(
    (0): Linear(in_features=66, out_features=74, bias=True)
    (1): ReLU()
    (2): Dropout(p=0.2520721820650737, inplace=False)
    (3): Linear(in_features=74, out_features=13, bias=True)
    (4): ReLU()
    (5): Dropout(p=0.11448543788458562, inplace=False)
    (6): Linear(in_features=13, out_features=58, bias=True)
    (7): ReLU()
    (8): Dropout(p=0.17055787866199112, inplace=False)
    (9): Linear(in_features=58, out_features=122, bias=True)
    (10): ReLU()
    (11): Dropout(p=0.12284783263571637, inplace=False)
    (12): Linear(in_features=122, out_features=1, bias=True)
    (13): ReLU()
  )
)

++++++++++++++++++++
Model params: 51184.
Model params: 58767.
Model params: 49168.
Model params: 43954.
Model params: 38789.
Model params: 36301.
Model params: 54743.
Model params: 29055.
Model params: 70887.
Model params: 31271.
Model params: 49563.
Model params: 49370.
Model params: 45251.
Model params: 49332.
Model params: 42420.
Model params: 65438.
Model params: 40777.
Model params: 52743.
Model params: 37954.
Model params: 74379.
Model params: 47391.
Model params: 47492.
Model params: 48595.
Model params: 46753.
Model params: 48478.
Model params: 60635.
Model params: 63486.
++++++++++++++++++++

NaN in epoch 0

VarMultiSetNet(
  (feature_extractor): Sequential(
    (0): Linear(in_features=15, out_features=62, bias=True)
    (1): ReLU()
    (2): Dropout(p=0.019420762651934577, inplace=False)
    (3): Linear(in_features=62, out_features=70, bias=True)
    (4): ReLU()
    (5): Dropout(p=0.034299297436671296, inplace=False)
    (6): Linear(in_features=70, out_features=101, bias=True)
    (7): ReLU()
    (8): Dropout(p=0.05177761765727553, inplace=False)
    (9): Linear(in_features=101, out_features=52, bias=True)
    (10): ReLU()
    (11): Dropout(p=0.17587438989471357, inplace=False)
    (12): Linear(in_features=52, out_features=123, bias=True)
    (13): ReLU()
    (14): Dropout(p=0.0452398626172483, inplace=False)
    (15): Linear(in_features=123, out_features=82, bias=True)
    (16): ReLU()
    (17): Dropout(p=0.09578337581189167, inplace=False)
    (18): Linear(in_features=82, out_features=62, bias=True)
    (19): ReLU()
  )
  (adder): InvLinear(in_features=62, out_features=1, bias=True, reduction=mean)
  (mlp): Sequential(
    (0): Linear(in_features=66, out_features=108, bias=True)
    (1): ReLU()
    (2): Dropout(p=0.06890827695319644, inplace=False)
    (3): Linear(in_features=108, out_features=30, bias=True)
    (4): ReLU()
    (5): Dropout(p=0.1540600802099074, inplace=False)
    (6): Linear(in_features=30, out_features=105, bias=True)
    (7): ReLU()
    (8): Dropout(p=0.13762615358070882, inplace=False)
    (9): Linear(in_features=105, out_features=93, bias=True)
    (10): ReLU()
    (11): Dropout(p=0.09955422990907861, inplace=False)
    (12): Linear(in_features=93, out_features=1, bias=True)
    (13): ReLU()
  )
)

++++++++++++++++++++
Model params: 66799.
Model params: 71282.
Model params: 23226.
Model params: 39734.
Model params: 45472.
Model params: 37405.
Model params: 26427.
Model params: 36187.
Model params: 53529.
Model params: 31809.
Model params: 43974.
Model params: 47950.
Model params: 59133.
Model params: 39846.
Model params: 36679.
Model params: 39624.
Model params: 43161.
Model params: 36654.
Model params: 46814.
Model params: 52724.
++++++++++++++++++++

NaN in epoch 0

VarMultiSetNet(
  (feature_extractor): Sequential(
    (0): Linear(in_features=15, out_features=67, bias=True)
    (1): ReLU()
    (2): Dropout(p=0.062481396792464616, inplace=False)
    (3): Linear(in_features=67, out_features=76, bias=True)
    (4): ReLU()
    (5): Dropout(p=0.1059707659184379, inplace=False)
    (6): Linear(in_features=76, out_features=100, bias=True)
    (7): ReLU()
    (8): Dropout(p=0.2133841943273181, inplace=False)
    (9): Linear(in_features=100, out_features=69, bias=True)
    (10): ReLU()
    (11): Dropout(p=0.13536321665525525, inplace=False)
    (12): Linear(in_features=69, out_features=23, bias=True)
    (13): ReLU()
    (14): Dropout(p=0.1296819010437893, inplace=False)
    (15): Linear(in_features=23, out_features=60, bias=True)
    (16): ReLU()
    (17): Dropout(p=0.1770008713052694, inplace=False)
    (18): Linear(in_features=60, out_features=58, bias=True)
    (19): ReLU()
  )
  (adder): InvLinear(in_features=58, out_features=1, bias=True, reduction=mean)
  (mlp): Sequential(
    (0): Linear(in_features=66, out_features=68, bias=True)
    (1): ReLU()
    (2): Dropout(p=0.0504147759227407, inplace=False)
    (3): Linear(in_features=68, out_features=39, bias=True)
    (4): ReLU()
    (5): Dropout(p=0.11431407889913234, inplace=False)
    (6): Linear(in_features=39, out_features=118, bias=True)
    (7): ReLU()
    (8): Dropout(p=0.10852803365013654, inplace=False)
    (9): Linear(in_features=118, out_features=110, bias=True)
    (10): ReLU()
    (11): Dropout(p=0.02868666217101311, inplace=False)
    (12): Linear(in_features=110, out_features=1, bias=True)
    (13): ReLU()
  )
)

++++++++++++++++++++
Model params: 38869.
Model params: 38857.
Model params: 39009.
Model params: 55158.
Model params: 43059.
Model params: 50992.
Model params: 53491.
Model params: 44057.
Model params: 43711.
Model params: 14388.
Model params: 54125.
Model params: 60848.
Model params: 45526.
Model params: 40933.
Model params: 47355.
Model params: 39387.
Model params: 38207.
Model params: 42428.
Model params: 37293.
Model params: 42685.
Model params: 39329.
Model params: 45354.
Model params: 41557.
Model params: 42694.
Model params: 40992.
Model params: 40317.
Model params: 39084.
Model params: 39319.
Model params: 46576.
Model params: 43671.
Model params: 49240.
++++++++++++++++++++

NaN in epoch 0

VarMultiSetNet(
  (feature_extractor): Sequential(
    (0): Linear(in_features=15, out_features=76, bias=True)
    (1): ReLU()
    (2): Dropout(p=0.13353919593840138, inplace=False)
    (3): Linear(in_features=76, out_features=128, bias=True)
    (4): ReLU()
    (5): Dropout(p=0.26478417369893426, inplace=False)
    (6): Linear(in_features=128, out_features=84, bias=True)
    (7): ReLU()
    (8): Dropout(p=0.24017173707828757, inplace=False)
    (9): Linear(in_features=84, out_features=21, bias=True)
    (10): ReLU()
    (11): Dropout(p=0.25550228873246605, inplace=False)
    (12): Linear(in_features=21, out_features=49, bias=True)
    (13): ReLU()
    (14): Dropout(p=0.09565780677975261, inplace=False)
    (15): Linear(in_features=49, out_features=127, bias=True)
    (16): ReLU()
    (17): Dropout(p=0.02479086374379011, inplace=False)
    (18): Linear(in_features=127, out_features=52, bias=True)
    (19): ReLU()
  )
  (adder): InvLinear(in_features=52, out_features=1, bias=True, reduction=mean)
  (mlp): Sequential(
    (0): Linear(in_features=66, out_features=95, bias=True)
    (1): ReLU()
    (2): Dropout(p=0.2609823203925208, inplace=False)
    (3): Linear(in_features=95, out_features=52, bias=True)
    (4): ReLU()
    (5): Dropout(p=0.1699018497321745, inplace=False)
    (6): Linear(in_features=52, out_features=1, bias=True)
    (7): ReLU()
  )
)

++++++++++++++++++++
Model params: 44440.
Model params: 43516.
Model params: 41513.
Model params: 44782.
Model params: 45161.
Model params: 43488.
Model params: 47809.
Model params: 58520.
Model params: 41496.
Model params: 46975.
Model params: 56219.
Model params: 43868.
Model params: 39113.
Model params: 44956.
Model params: 47032.
Model params: 43289.
Model params: 46907.
Model params: 38658.
Model params: 57247.
Model params: 40988.
Model params: 45935.
Model params: 41471.
Model params: 28466.
Model params: 76724.
Model params: 48283.
Model params: 49236.
Model params: 46465.
Model params: 54185.
Model params: 38191.
Model params: 45755.
Model params: 41769.
Model params: 42024.
Model params: 48023.
Model params: 46127.
Model params: 23965.
Model params: 46855.
Model params: 45929.
Model params: 45463.
Model params: 41542.
++++++++++++++++++++

NaN in epoch 0

VarMultiSetNet(
  (feature_extractor): Sequential(
    (0): Linear(in_features=15, out_features=71, bias=True)
    (1): ReLU()
    (2): Dropout(p=0.03715629012039576, inplace=False)
    (3): Linear(in_features=71, out_features=111, bias=True)
    (4): ReLU()
    (5): Dropout(p=0.2105428374239182, inplace=False)
    (6): Linear(in_features=111, out_features=102, bias=True)
    (7): ReLU()
    (8): Dropout(p=0.2697683681449759, inplace=False)
    (9): Linear(in_features=102, out_features=19, bias=True)
    (10): ReLU()
    (11): Dropout(p=0.2701324135180264, inplace=False)
    (12): Linear(in_features=19, out_features=36, bias=True)
    (13): ReLU()
    (14): Dropout(p=0.09040578806523056, inplace=False)
    (15): Linear(in_features=36, out_features=128, bias=True)
    (16): ReLU()
    (17): Dropout(p=0.08146775836331942, inplace=False)
    (18): Linear(in_features=128, out_features=50, bias=True)
    (19): ReLU()
  )
  (adder): InvLinear(in_features=50, out_features=1, bias=True, reduction=mean)
  (mlp): Sequential(
    (0): Linear(in_features=66, out_features=87, bias=True)
    (1): ReLU()
    (2): Dropout(p=0.2976971580247579, inplace=False)
    (3): Linear(in_features=87, out_features=14, bias=True)
    (4): ReLU()
    (5): Dropout(p=0.20799286812084905, inplace=False)
    (6): Linear(in_features=14, out_features=1, bias=True)
    (7): ReLU()
  )
)

++++++++++++++++++++
Model params: 52228.
Model params: 52111.
Model params: 45797.
Model params: 46758.
Model params: 46971.
Model params: 44337.
Model params: 42727.
Model params: 48150.
Model params: 42195.
Model params: 46557.
Model params: 65717.
Model params: 51734.
Model params: 19980.
Model params: 45695.
Model params: 47054.
…
