++++++++ Session Characteristics +++++++

Gal Type: qso
Training Samples: 13394
Validation Samples: 6595
Maximum Set Lengths: 30
Device: cuda:0
Number of Workers: 8
Number of Trials: 200

+++++++++++++++++++++++++++++++++++++++
Model params: 53942.
Model params: 73472.
++++++++++++++++++++

NaN in epoch 0

VarMultiSetNet(
  (feature_extractor): Sequential(
    (0): Linear(in_features=15, out_features=80, bias=True)
    (1): ReLU()
    (2): Dropout(p=0.20956774165862382, inplace=False)
    (3): Linear(in_features=80, out_features=9, bias=True)
    (4): ReLU()
    (5): Dropout(p=0.2999032300402571, inplace=False)
    (6): Linear(in_features=9, out_features=75, bias=True)
    (7): ReLU()
    (8): Dropout(p=0.1266321958939744, inplace=False)
    (9): Linear(in_features=75, out_features=21, bias=True)
    (10): ReLU()
    (11): Dropout(p=0.11219488134830853, inplace=False)
    (12): Linear(in_features=21, out_features=79, bias=True)
    (13): ReLU()
    (14): Dropout(p=0.06087443015950833, inplace=False)
    (15): Linear(in_features=79, out_features=100, bias=True)
    (16): ReLU()
    (17): Dropout(p=0.013253281776668424, inplace=False)
    (18): Linear(in_features=100, out_features=105, bias=True)
    (19): ReLU()
    (20): Dropout(p=0.04957251110848049, inplace=False)
    (21): Linear(in_features=105, out_features=117, bias=True)
    (22): ReLU()
    (23): Dropout(p=0.07085421911152763, inplace=False)
    (24): Linear(in_features=117, out_features=49, bias=True)
    (25): ReLU()
  )
  (adder): InvLinear(in_features=49, out_features=1, bias=True, reduction=mean)
  (mlp): Sequential(
    (0): Linear(in_features=66, out_features=94, bias=True)
    (1): ReLU()
    (2): Dropout(p=0.014973620089215444, inplace=False)
    (3): Linear(in_features=94, out_features=14, bias=True)
    (4): ReLU()
    (5): Dropout(p=0.05684966787067775, inplace=False)
    (6): Linear(in_features=14, out_features=26, bias=True)
    (7): ReLU()
    (8): Dropout(p=0.08468503758652425, inplace=False)
    (9): Linear(in_features=26, out_features=101, bias=True)
    (10): ReLU()
    (11): Dropout(p=0.15802241802928918, inplace=False)
    (12): Linear(in_features=101, out_features=97, bias=True)
    (13): ReLU()
    (14): Dropout(p=0.18927344906889312, inplace=False)
    (15): Linear(in_features=97, out_features=100, bias=True)
    (16): ReLU()
    (17): Dropout(p=0.16742217796411957, inplace=False)
    (18): Linear(in_features=100, out_features=1, bias=True)
    (19): ReLU()
  )
)

++++++++++++++++++++
Model params: 66792.
Model params: 26568.
Model params: 38500.
Model params: 40076.
Model params: 31522.
Model params: 38581.
Model params: 65675.
Model params: 62361.
Model params: 40704.
++++++++++++++++++++

NaN in epoch 0

VarMultiSetNet(
  (feature_extractor): Sequential(
    (0): Linear(in_features=15, out_features=9, bias=True)
    (1): ReLU()
    (2): Dropout(p=0.005067564151176561, inplace=False)
    (3): Linear(in_features=9, out_features=41, bias=True)
    (4): ReLU()
    (5): Dropout(p=0.19551578665262048, inplace=False)
    (6): Linear(in_features=41, out_features=97, bias=True)
    (7): ReLU()
    (8): Dropout(p=0.2825088119525029, inplace=False)
    (9): Linear(in_features=97, out_features=77, bias=True)
    (10): ReLU()
    (11): Dropout(p=0.07613686200114468, inplace=False)
    (12): Linear(in_features=77, out_features=17, bias=True)
    (13): ReLU()
  )
  (adder): InvLinear(in_features=17, out_features=1, bias=True, reduction=mean)
  (mlp): Sequential(
    (0): Linear(in_features=66, out_features=54, bias=True)
    (1): ReLU()
    (2): Dropout(p=0.19651009519232132, inplace=False)
    (3): Linear(in_features=54, out_features=77, bias=True)
    (4): ReLU()
    (5): Dropout(p=0.2921907805741426, inplace=False)
    (6): Linear(in_features=77, out_features=94, bias=True)
    (7): ReLU()
    (8): Dropout(p=0.20323568792405602, inplace=False)
    (9): Linear(in_features=94, out_features=125, bias=True)
    (10): ReLU()
    (11): Dropout(p=0.0012219739485380687, inplace=False)
    (12): Linear(in_features=125, out_features=1, bias=True)
    (13): ReLU()
  )
)

++++++++++++++++++++
Model params: 44728.
Model params: 35009.
Model params: 46612.
++++++++++++++++++++

NaN in epoch 0

VarMultiSetNet(
  (feature_extractor): Sequential(
    (0): Linear(in_features=15, out_features=30, bias=True)
    (1): ReLU()
    (2): Dropout(p=0.06165144680124947, inplace=False)
    (3): Linear(in_features=30, out_features=48, bias=True)
    (4): ReLU()
    (5): Dropout(p=0.1407457171387942, inplace=False)
    (6): Linear(in_features=48, out_features=114, bias=True)
    (7): ReLU()
    (8): Dropout(p=0.2154417372627831, inplace=False)
    (9): Linear(in_features=114, out_features=51, bias=True)
    (10): ReLU()
    (11): Dropout(p=0.0013355261779348683, inplace=False)
    (12): Linear(in_features=51, out_features=53, bias=True)
    (13): ReLU()
  )
  (adder): InvLinear(in_features=53, out_features=1, bias=True, reduction=mean)
  (mlp): Sequential(
    (0): Linear(in_features=66, out_features=59, bias=True)
    (1): ReLU()
    (2): Dropout(p=0.21683824917015831, inplace=False)
    (3): Linear(in_features=59, out_features=93, bias=True)
    (4): ReLU()
    (5): Dropout(p=0.003747962042380898, inplace=False)
    (6): Linear(in_features=93, out_features=126, bias=True)
    (7): ReLU()
    (8): Dropout(p=0.005260941400508742, inplace=False)
    (9): Linear(in_features=126, out_features=45, bias=True)
    (10): ReLU()
    (11): Dropout(p=0.06941552896701286, inplace=False)
    (12): Linear(in_features=45, out_features=33, bias=True)
    (13): ReLU()
    (14): Dropout(p=0.0009895337590703282, inplace=False)
    (15): Linear(in_features=33, out_features=12, bias=True)
    (16): ReLU()
    (17): Dropout(p=0.29703395414132305, inplace=False)
    (18): Linear(in_features=12, out_features=8, bias=True)
    (19): ReLU()
    (20): Dropout(p=0.0035015536642243657, inplace=False)
    (21): Linear(in_features=8, out_features=126, bias=True)
    (22): ReLU()
    (23): Dropout(p=0.2843454353265819, inplace=False)
    (24): Linear(in_features=126, out_features=1, bias=True)
    (25): ReLU()
  )
)

++++++++++++++++++++
Model params: 55235.
Model params: 18518.
Model params: 28877.
Model params: 49626.
++++++++++++++++++++

NaN in epoch 0

VarMultiSetNet(
  (feature_extractor): Sequential(
    (0): Linear(in_features=15, out_features=8, bias=True)
    (1): ReLU()
    (2): Dropout(p=0.18772312320011666, inplace=False)
    (3): Linear(in_features=8, out_features=56, bias=True)
    (4): ReLU()
    (5): Dropout(p=0.22940037655598305, inplace=False)
    (6): Linear(in_features=56, out_features=55, bias=True)
    (7): ReLU()
    (8): Dropout(p=0.22013924471123675, inplace=False)
    (9): Linear(in_features=55, out_features=39, bias=True)
    (10): ReLU()
    (11): Dropout(p=0.00036145107238489457, inplace=False)
    (12): Linear(in_features=39, out_features=32, bias=True)
    (13): ReLU()
    (14): Dropout(p=0.28677294504307893, inplace=False)
    (15): Linear(in_features=32, out_features=35, bias=True)
    (16): ReLU()
    (17): Dropout(p=0.08410184984158019, inplace=False)
    (18): Linear(in_features=35, out_features=23, bias=True)
    (19): ReLU()
  )
  (adder): InvLinear(in_features=23, out_features=1, bias=True, reduction=mean)
  (mlp): Sequential(
    (0): Linear(in_features=66, out_features=126, bias=True)
    (1): ReLU()
    (2): Dropout(p=0.1662381139373641, inplace=False)
    (3): Linear(in_features=126, out_features=52, bias=True)
    (4): ReLU()
    (5): Dropout(p=0.1205517302495129, inplace=False)
    (6): Linear(in_features=52, out_features=71, bias=True)
    (7): ReLU()
    (8): Dropout(p=0.0036183808498304673, inplace=False)
    (9): Linear(in_features=71, out_features=60, bias=True)
    (10): ReLU()
    (11): Dropout(p=0.10445581193525756, inplace=False)
    (12): Linear(in_features=60, out_features=127, bias=True)
    (13): ReLU()
    (14): Dropout(p=0.07611567702305419, inplace=False)
    (15): Linear(in_features=127, out_features=46, bias=True)
    (16): ReLU()
    (17): Dropout(p=0.2294068417023135, inplace=False)
    (18): Linear(in_features=46, out_features=57, bias=True)
    (19): ReLU()
    (20): Dropout(p=0.13927750748439577, inplace=False)
    (21): Linear(in_features=57, out_features=16, bias=True)
    (22): ReLU()
    (23): Dropout(p=0.172694672013033, inplace=False)
    (24): Linear(in_features=16, out_features=1, bias=True)
    (25): ReLU()
  )
)

++++++++++++++++++++
Model params: 40031.
Model params: 19765.
Model params: 36309.
++++++++++++++++++++

NaN in epoch 0

VarMultiSetNet(
  (feature_extractor): Sequential(
    (0): Linear(in_features=15, out_features=23, bias=True)
    (1): ReLU()
    (2): Dropout(p=0.17644193941249883, inplace=False)
    (3): Linear(in_features=23, out_features=84, bias=True)
    (4): ReLU()
    (5): Dropout(p=0.05522111836926355, inplace=False)
    (6): Linear(in_features=84, out_features=51, bias=True)
    (7): ReLU()
  )
  (adder): InvLinear(in_features=51, out_features=1, bias=True, reduction=mean)
  (mlp): Sequential(
    (0): Linear(in_features=66, out_features=64, bias=True)
    (1): ReLU()
    (2): Dropout(p=0.19528952103229846, inplace=False)
    (3): Linear(in_features=64, out_features=90, bias=True)
    (4): ReLU()
    (5): Dropout(p=0.272533888976329, inplace=False)
    (6): Linear(in_features=90, out_features=105, bias=True)
    (7): ReLU()
    (8): Dropout(p=0.19642188286215548, inplace=False)
    (9): Linear(in_features=105, out_features=92, bias=True)
    (10): ReLU()
    (11): Dropout(p=0.039121585737480605, inplace=False)
    (12): Linear(in_features=92, out_features=1, bias=True)
    (13): ReLU()
  )
)

++++++++++++++++++++
Model params: 59068.
Model params: 67079.
Model params: 76009.
Model params: 60527.
Model params: 86161.
Model params: 29807.
Model params: 30888.
Model params: 19434.
Model params: 27597.
Model params: 44705.
Model params: 46879.
Model params: 51457.
Model params: 33174.
Model params: 35259.
Model params: 36211.
Model params: 56172.
Model params: 34758.
++++++++++++++++++++

NaN in epoch 0

VarMultiSetNet(
  (feature_extractor): Sequential(
    (0): Linear(in_features=15, out_features=74, bias=True)
    (1): ReLU()
    (2): Dropout(p=0.156864523150946, inplace=False)
    (3): Linear(in_features=74, out_features=44, bias=True)
    (4): ReLU()
    (5): Dropout(p=0.16204539589167496, inplace=False)
    (6): Linear(in_features=44, out_features=33, bias=True)
    (7): ReLU()
  )
  (adder): InvLinear(in_features=33, out_features=1, bias=True, reduction=mean)
  (mlp): Sequential(
    (0): Linear(in_features=66, out_features=54, bias=True)
    (1): ReLU()
    (2): Dropout(p=0.12197727847033785, inplace=False)
    (3): Linear(in_features=54, out_features=120, bias=True)
    (4): ReLU()
    (5): Dropout(p=0.1320513844838675, inplace=False)
    (6): Linear(in_features=120, out_features=80, bias=True)
    (7): ReLU()
    (8): Dropout(p=0.1769817677849651, inplace=False)
    (9): Linear(in_features=80, out_features=108, bias=True)
    (10): ReLU()
    (11): Dropout(p=0.04817539366969294, inplace=False)
    (12): Linear(in_features=108, out_features=1, bias=True)
    (13): ReLU()
  )
)

++++++++++++++++++++
Model params: 63562.
Model params: 34753.
Model params: 29354.
Model params: 68931.
Model params: 61823.
Model params: 41399.
Model params: 50246.
Model params: 101593.
Model params: 18817.
Model params: 42981.
Model params: 34055.
++++++++++++++++++++

NaN in epoch 0

VarMultiSetNet(
  (feature_extractor): Sequential(
    (0): Linear(in_features=15, out_features=15, bias=True)
    (1): ReLU()
    (2): Dropout(p=0.12472657629498855, inplace=False)
    (3): Linear(in_features=15, out_features=30, bias=True)
    (4): ReLU()
    (5): Dropout(p=0.15934543480855995, inplace=False)
    (6): Linear(in_features=30, out_features=93, bias=True)
    (7): ReLU()
    (8): Dropout(p=0.11550331548560189, inplace=False)
    (9): Linear(in_features=93, out_features=36, bias=True)
    (10): ReLU()
    (11): Dropout(p=0.1349052046068506, inplace=False)
    (12): Linear(in_features=36, out_features=64, bias=True)
    (13): ReLU()
    (14): Dropout(p=0.26709921712415174, inplace=False)
    (15): Linear(in_features=64, out_features=115, bias=True)
    (16): ReLU()
    (17): Dropout(p=0.05970657044135193, inplace=False)
    (18): Linear(in_features=115, out_features=21, bias=True)
    (19): ReLU()
  )
  (adder): InvLinear(in_features=21, out_features=1, bias=True, reduction=mean)
  (mlp): Sequential(
    (0): Linear(in_features=66, out_features=57, bias=True)
    (1): ReLU()
    (2): Dropout(p=0.14462115761515532, inplace=False)
    (3): Linear(in_features=57, out_features=98, bias=True)
    (4): ReLU()
    (5): Dropout(p=0.06255162986229673, inplace=False)
    (6): Linear(in_features=98, out_features=41, bias=True)
    (7): ReLU()
    (8): Dropout(p=0.12984929820616695, inplace=False)
    (9): Linear(in_features=41, out_features=28, bias=True)
    (10): ReLU()
    (11): Dropout(p=0.15093250293927296, inplace=False)
    (12): Linear(in_features=28, out_features=1, bias=True)
    (13): ReLU()
  )
)

++++++++++++++++++++
Model params: 35235.
Model params: 37272.
Model params: 41903.
Model params: 39960.
Model params: 58867.
Model params: 34829.
Model params: 34721.
Model params: 50271.
Model params: 22994.
Model params: 26116.
Model params: 24834.
Model params: 23538.
++++++++++++++++++++

NaN in epoch 0

VarMultiSetNet(
  (feature_extractor): Sequential(
    (0): Linear(in_features=15, out_features=67, bias=True)
    (1): ReLU()
    (2): Dropout(p=0.132421971445156, inplace=False)
    (3): Linear(in_features=67, out_features=61, bias=True)
    (4): ReLU()
    (5): Dropout(p=0.2029328519628074, inplace=False)
    (6): Linear(in_features=61, out_features=72, bias=True)
    (7): ReLU()
    (8): Dropout(p=0.1480580205835184, inplace=False)
    (9): Linear(in_features=72, out_features=56, bias=True)
    (10): ReLU()
    (11): Dropout(p=0.17668366614952505, inplace=False)
    (12): Linear(in_features=56, out_features=16, bias=True)
    (13): ReLU()
  )
  (adder): InvLinear(in_features=16, out_features=1, bias=True, reduction=mean)
  (mlp): Sequential(
    (0): Linear(in_features=66, out_features=67, bias=True)
    (1): ReLU()
    (2): Dropout(p=0.03772499466711592, inplace=False)
    (3): Linear(in_features=67, out_features=63, bias=True)
    (4): ReLU()
    (5): Dropout(p=0.07817576118343253, inplace=False)
    (6): Linear(in_features=63, out_features=1, bias=True)
    (7): ReLU()
  )
)

++++++++++++++++++++
Model params: 27543.
Model params: 49471.
Model params: 37147.
Model params: 16764.
Model params: 20133.
Model params: 7428.
Model params: 21100.
Model params: 30546.
Model params: 31769.
Model params: 30438.
Model params: 30493.
Model params: 30196.
Model params: 27772.
Model params: 25319.
Model params: 30447.
Model params: 28238.
Model params: 37675.
Model params: 36778.
Model params: 29778.
Model params: 24914.
++++++++++++++++++++

NaN in epoch 0

VarMultiSetNet(
  (feature_extractor): Sequential(
    (0): Linear(in_features=15, out_features=75, bias=True)
    (1): ReLU()
    (2): Dropout(p=0.12887477574789474, inplace=False)
    (3): Linear(in_features=75, out_features=81, bias=True)
    (4): ReLU()
    (5): Dropout(p=0.2807631480776652, inplace=False)
    (6): Linear(in_features=81, out_features=32, bias=True)
    (7): ReLU()
  )
  (adder): InvLinear(in_features=32, out_features=1, bias=True, reduction=mean)
  (mlp): Sequential(
    (0): Linear(in_features=66, out_features=31, bias=True)
    (1): ReLU()
    (2): Dropout(p=0.2806299576546567, inplace=False)
    (3): Linear(in_features=31, out_features=57, bias=True)
    (4): ReLU()
    (5): Dropout(p=0.21324756833381292, inplace=False)
    (6): Linear(in_features=57, out_features=63, bias=True)
    (7): ReLU()
    (8): Dropout(p=0.2521625817523944, inplace=False)
    (9): Linear(in_features=63, out_features=113, bias=True)
    (10): ReLU()
    (11): Dropout(p=0.0006049718113047492, inplace=False)
    (12): Linear(in_features=113, out_features=1, bias=True)
    (13): ReLU()
  )
)

++++++++++++++++++++
Model params: 27814.
Model params: 33926.
Model params: 33021.
Model params: 33781.
Model params: 31384.
Model params: 27644.
Model params: 39572.
Model params: 43003.
++++++++ Session Characteristics +++++++

Gal Type: qso
Training Samples: 13394
Validation Samples: 6595
Maximum Set Lengths: 30
Device: cuda:0
Number of Workers: 8
Number of Trials: 300

+++++++++++++++++++++++++++++++++++++++
Model params: 82818.
Model params: 36887.
++++++++++++++++++++

NaN in epoch 0

VarMultiSetNet(
  (feature_extractor): Sequential(
    (0): Linear(in_features=15, out_features=68, bias=True)
    (1): ReLU()
    (2): Dropout(p=0.2569656956706477, inplace=False)
    (3): Linear(in_features=68, out_features=47, bias=True)
    (4): ReLU()
    (5): Dropout(p=0.03309431270120787, inplace=False)
    (6): Linear(in_features=47, out_features=33, bias=True)
    (7): ReLU()
    (8): Dropout(p=0.2861390098456878, inplace=False)
    (9): Linear(in_features=33, out_features=32, bias=True)
    (10): ReLU()
    (11): Dropout(p=0.1628071539585079, inplace=False)
    (12): Linear(in_features=32, out_features=110, bias=True)
    (13): ReLU()
    (14): Dropout(p=0.09353027409659764, inplace=False)
    (15): Linear(in_features=110, out_features=33, bias=True)
    (16): ReLU()
    (17): Dropout(p=0.2753763569486813, inplace=False)
    (18): Linear(in_features=33, out_features=56, bias=True)
    (19): ReLU()
  )
  (adder): InvLinear(in_features=56, out_features=1, bias=True, reduction=mean)
  (mlp): Sequential(
    (0): Linear(in_features=66, out_features=110, bias=True)
    (1): ReLU()
    (2): Dropout(p=0.1290615352273152, inplace=False)
    (3): Linear(in_features=110, out_features=35, bias=True)
    (4): ReLU()
    (5): Dropout(p=0.04973197978616129, inplace=False)
    (6): Linear(in_features=35, out_features=74, bias=True)
    (7): ReLU()
    (8): Dropout(p=0.08305014134280547, inplace=False)
    (9): Linear(in_features=74, out_features=22, bias=True)
    (10): ReLU()
    (11): Dropout(p=0.0037061493308930826, inplace=False)
    (12): Linear(in_features=22, out_features=32, bias=True)
    (13): ReLU()
    (14): Dropout(p=0.065880670081236, inplace=False)
    (15): Linear(in_features=32, out_features=96, bias=True)
    (16): ReLU()
    (17): Dropout(p=0.2192942003623126, inplace=False)
    (18): Linear(in_features=96, out_features=8, bias=True)
    (19): ReLU()
    (20): Dropout(p=0.26592054061191367, inplace=False)
    (21): Linear(in_features=8, out_features=38, bias=True)
    (22): ReLU()
    (23): Dropout(p=0.06332188689375164, inplace=False)
    (24): Linear(in_features=38, out_features=1, bias=True)
    (25): ReLU()
  )
)

++++++++++++++++++++
Model params: 52816.
++++++++++++++++++++

NaN in epoch 0

VarMultiSetNet(
  (feature_extractor): Sequential(
    (0): Linear(in_features=15, out_features=43, bias=True)
    (1): ReLU()
    (2): Dropout(p=0.07456796344794005, inplace=False)
    (3): Linear(in_features=43, out_features=21, bias=True)
    (4): ReLU()
    (5): Dropout(p=0.050169496511449585, inplace=False)
    (6): Linear(in_features=21, out_features=87, bias=True)
    (7): ReLU()
    (8): Dropout(p=0.13459419766442496, inplace=False)
    (9): Linear(in_features=87, out_features=96, bias=True)
    (10): ReLU()
    (11): Dropout(p=0.09979080370555737, inplace=False)
    (12): Linear(in_features=96, out_features=82, bias=True)
    (13): ReLU()
    (14): Dropout(p=0.17734514983177338, inplace=False)
    (15): Linear(in_features=82, out_features=120, bias=True)
    (16): ReLU()
    (17): Dropout(p=0.15099931878162845, inplace=False)
    (18): Linear(in_features=120, out_features=8, bias=True)
    (19): ReLU()
    (20): Dropout(p=0.10051739091537164, inplace=False)
    (21): Linear(in_features=8, out_features=80, bias=True)
    (22): ReLU()
    (23): Dropout(p=0.0548982744449123, inplace=False)
    (24): Linear(in_features=80, out_features=24, bias=True)
    (25): ReLU()
  )
  (adder): InvLinear(in_features=24, out_features=1, bias=True, reduction=mean)
  (mlp): Sequential(
    (0): Linear(in_features=66, out_features=56, bias=True)
    (1): ReLU()
    (2): Dropout(p=0.005664513031742491, inplace=False)
    (3): Linear(in_features=56, out_features=69, bias=True)
    (4): ReLU()
    (5): Dropout(p=0.1497296230565209, inplace=False)
    (6): Linear(in_features=69, out_features=64, bias=True)
    (7): ReLU()
    (8): Dropout(p=0.20099710072251178, inplace=False)
    (9): Linear(in_features=64, out_features=73, bias=True)
    (10): ReLU()
    (11): Dropout(p=0.15964893392715757, inplace=False)
    (12): Linear(in_features=73, out_features=20, bias=True)
    (13): ReLU()
    (14): Dropout(p=0.11537606004883005, inplace=False)
    (15): Linear(in_features=20, out_features=40, bias=True)
    (16): ReLU()
    (17): Dropout(p=0.06727991014876313, inplace=False)
    (18): Linear(in_features=40, out_features=1, bias=True)
    (19): ReLU()
  )
)

++++++++++++++++++++
Model params: 38932.
++++++++++++++++++++

NaN in epoch 0

VarMultiSetNet(
  (feature_extractor): Sequential(
    (0): Linear(in_features=15, out_features=28, bias=True)
    (1): ReLU()
    (2): Dropout(p=0.13094265643738326, inplace=False)
    (3): Linear(in_features=28, out_features=38, bias=True)
    (4): ReLU()
    (5): Dropout(p=0.061544959730177304, inplace=False)
    (6): Linear(in_features=38, out_features=97, bias=True)
    (7): ReLU()
    (8): Dropout(p=0.29480754605605364, inplace=False)
    (9): Linear(in_features=97, out_features=51, bias=True)
    (10): ReLU()
    (11): Dropout(p=0.10301534466764586, inplace=False)
    (12): Linear(in_features=51, out_features=29, bias=True)
    (13): ReLU()
  )
  (adder): InvLinear(in_features=29, out_features=1, bias=True, reduction=mean)
  (mlp): Sequential(
    (0): Linear(in_features=66, out_features=71, bias=True)
    (1): ReLU()
    (2): Dropout(p=0.2757009122073501, inplace=False)
    (3): Linear(in_features=71, out_features=94, bias=True)
    (4): ReLU()
    (5): Dropout(p=0.10318796189647161, inplace=False)
    (6): Linear(in_features=94, out_features=70, bias=True)
    (7): ReLU()
    (8): Dropout(p=0.14498136299119563, inplace=False)
    (9): Linear(in_features=70, out_features=67, bias=True)
    (10): ReLU()
    (11): Dropout(p=0.26427612408490725, inplace=False)
    (12): Linear(in_features=67, out_features=14, bias=True)
    (13): ReLU()
    (14): Dropout(p=0.2957747977587894, inplace=False)
    (15): Linear(in_features=14, out_features=110, bias=True)
    (16): ReLU()
    (17): Dropout(p=0.1052354473556411, inplace=False)
    (18): Linear(in_features=110, out_features=12, bias=True)
    (19): ReLU()
    (20): Dropout(p=0.045909027494769696, inplace=False)
    (21): Linear(in_features=12, out_features=14, bias=True)
    (22): ReLU()
    (23): Dropout(p=0.1038621619987222, inplace=False)
    (24): Linear(in_features=14, out_features=1, bias=True)
    (25): ReLU()
  )
)

++++++++++++++++++++
Model params: 59373.
Model params: 75126.
++++++++++++++++++++

NaN in epoch 0

VarMultiSetNet(
  (feature_extractor): Sequential(
    (0): Linear(in_features=15, out_features=76, bias=True)
    (1): ReLU()
    (2): Dropout(p=0.09398402489884268, inplace=False)
    (3): Linear(in_features=76, out_features=66, bias=True)
    (4): ReLU()
    (5): Dropout(p=0.2195594825941727, inplace=False)
    (6): Linear(in_features=66, out_features=17, bias=True)
    (7): ReLU()
    (8): Dropout(p=0.2418829679873924, inplace=False)
    (9): Linear(in_features=17, out_features=34, bias=True)
    (10): ReLU()
    (11): Dropout(p=0.2687791514247064, inplace=False)
    (12): Linear(in_features=34, out_features=80, bias=True)
    (13): ReLU()
    (14): Dropout(p=0.00016790591457611635, inplace=False)
    (15): Linear(in_features=80, out_features=62, bias=True)
    (16): ReLU()
    (17): Dropout(p=0.18019420386568177, inplace=False)
    (18): Linear(in_features=62, out_features=31, bias=True)
    (19): ReLU()
    (20): Dropout(p=0.17540970189136149, inplace=False)
    (21): Linear(in_features=31, out_features=70, bias=True)
    (22): ReLU()
    (23): Dropout(p=0.21999769815479037, inplace=False)
    (24): Linear(in_features=70, out_features=41, bias=True)
    (25): ReLU()
  )
  (adder): InvLinear(in_features=41, out_features=1, bias=True, reduction=mean)
  (mlp): Sequential(
    (0): Linear(in_features=66, out_features=95, bias=True)
    (1): ReLU()
    (2): Dropout(p=0.20090380214454295, inplace=False)
    (3): Linear(in_features=95, out_features=128, bias=True)
    (4): ReLU()
    (5): Dropout(p=0.059156343936369635, inplace=False)
    (6): Linear(in_features=128, out_features=95, bias=True)
    (7): ReLU()
    (8): Dropout(p=0.11242422409586923, inplace=False)
    (9): Linear(in_features=95, out_features=31, bias=True)
    (10): ReLU()
    (11): Dropout(p=0.20234283503452669, inplace=False)
    (12): Linear(in_features=31, out_features=125, bias=True)
    (13): ReLU()
    (14): Dropout(p=0.2629683945831269, inplace=False)
    (15): Linear(in_features=125, out_features=112, bias=True)
    (16): ReLU()
    (17): Dropout(p=0.09048279083094277, inplace=False)
    (18): Linear(in_features=112, out_features=1, bias=True)
    (19): ReLU()
  )
)

++++++++++++++++++++
Model params: 26516.
Model params: 40863.
Model params: 27352.
++++++++++++++++++++

NaN in epoch 0

VarMultiSetNet(
  (feature_extractor): Sequential(
    (0): Linear(in_features=15, out_features=67, bias=True)
    (1): ReLU()
    (2): Dropout(p=0.008872094455531864, inplace=False)
    (3): Linear(in_features=67, out_features=36, bias=True)
    (4): ReLU()
    (5): Dropout(p=0.23964899726390912, inplace=False)
    (6): Linear(in_features=36, out_features=59, bias=True)
    (7): ReLU()
    (8): Dropout(p=0.22175094496495143, inplace=False)
    (9): Linear(in_features=59, out_features=82, bias=True)
    (10): ReLU()
    (11): Dropout(p=0.033798793781700066, inplace=False)
    (12): Linear(in_features=82, out_features=32, bias=True)
    (13): ReLU()
    (14): Dropout(p=0.042143933104006236, inplace=False)
    (15): Linear(in_features=32, out_features=31, bias=True)
    (16): ReLU()
    (17): Dropout(p=0.12502407171954508, inplace=False)
    (18): Linear(in_features=31, out_features=57, bias=True)
    (19): ReLU()
  )
  (adder): InvLinear(in_features=57, out_features=1, bias=True, reduction=mean)
  (mlp): Sequential(
    (0): Linear(in_features=66, out_features=22, bias=True)
    (1): ReLU()
    (2): Dropout(p=0.03609580407008817, inplace=False)
    (3): Linear(in_features=22, out_features=46, bias=True)
    (4): ReLU()
    (5): Dropout(p=0.29844212911410456, inplace=False)
    (6): Linear(in_features=46, out_features=11, bias=True)
    (7): ReLU()
    (8): Dropout(p=0.10852067653912002, inplace=False)
    (9): Linear(in_features=11, out_features=92, bias=True)
    (10): ReLU()
    (11): Dropout(p=0.13816999765738402, inplace=False)
    (12): Linear(in_features=92, out_features=58, bias=True)
    (13): ReLU()
    (14): Dropout(p=0.06324512343749418, inplace=False)
    (15): Linear(in_features=58, out_features=27, bias=True)
    (16): ReLU()
    (17): Dropout(p=0.17185406828499153, inplace=False)
    (18): Linear(in_features=27, out_features=1, bias=True)
    (19): ReLU()
  )
)

++++++++++++++++++++
Model params: 49134.
++++++++++++++++++++

NaN in epoch 0

VarMultiSetNet(
  (feature_extractor): Sequential(
    (0): Linear(in_features=15, out_features=47, bias=True)
    (1): ReLU()
    (2): Dropout(p=0.12143422778047465, inplace=False)
    (3): Linear(in_features=47, out_features=107, bias=True)
    (4): ReLU()
    (5): Dropout(p=0.26658536188509235, inplace=False)
    (6): Linear(in_features=107, out_features=116, bias=True)
    (7): ReLU()
    (8): Dropout(p=0.1531605210198904, inplace=False)
    (9): Linear(in_features=116, out_features=91, bias=True)
    (10): ReLU()
    (11): Dropout(p=0.17313918592282132, inplace=False)
    (12): Linear(in_features=91, out_features=60, bias=True)
    (13): ReLU()
    (14): Dropout(p=0.0002958618065973195, inplace=False)
    (15): Linear(in_features=60, out_features=31, bias=True)
    (16): ReLU()
    (17): Dropout(p=0.15545837782152058, inplace=False)
    (18): Linear(in_features=31, out_features=80, bias=True)
    (19): ReLU()
    (20): Dropout(p=0.041111602008336155, inplace=False)
    (21): Linear(in_features=80, out_features=63, bias=True)
    (22): ReLU()
    (23): Dropout(p=0.008887028645907347, inplace=False)
    (24): Linear(in_features=63, out_features=41, bias=True)
    (25): ReLU()
  )
  (adder): InvLinear(in_features=41, out_features=1, bias=True, reduction=mean)
  (mlp): Sequential(
    (0): Linear(in_features=66, out_features=12, bias=True)
    (1): ReLU()
    (2): Dropout(p=0.012330934186734976, inplace=False)
    (3): Linear(in_features=12, out_features=109, bias=True)
    (4): ReLU()
    (5): Dropout(p=0.1646920276925181, inplace=False)
    (6): Linear(in_features=109, out_features=1, bias=True)
    (7): ReLU()
  )
)

++++++++++++++++++++
Model params: 61685.
Model params: 28907.
Model params: 59278.
Model params: 35514.
Model params: 46529.
Model params: 52410.
Model params: 48351.
Model params: 68181.
Model params: 47327.
Model params: 39410.
Model params: 71688.
Model params: 25483.
Model params: 50217.
Model params: 31674.
Model params: 43688.
Model params: 45689.
Model params: 38670.
Model params: 62174.
Model params: 60744.
Model params: 44283.
Model params: 89388.
Model params: 62425.
Model params: 44928.
Model params: 53947.
Model params: 84548.
Model params: 81652.
Model params: 69602.
++++++++++++++++++++

NaN in epoch 0

VarMultiSetNet(
  (feature_extractor): Sequential(
    (0): Linear(in_features=15, out_features=55, bias=True)
    (1): ReLU()
    (2): Dropout(p=0.12348213492037818, inplace=False)
    (3): Linear(in_features=55, out_features=45, bias=True)
    (4): ReLU()
    (5): Dropout(p=0.2013568486505712, inplace=False)
    (6): Linear(in_features=45, out_features=61, bias=True)
    (7): ReLU()
    (8): Dropout(p=0.008539229394071845, inplace=False)
    (9): Linear(in_features=61, out_features=22, bias=True)
    (10): ReLU()
    (11): Dropout(p=0.14804829406572836, inplace=False)
    (12): Linear(in_features=22, out_features=8, bias=True)
    (13): ReLU()
    (14): Dropout(p=0.03436653169862865, inplace=False)
    (15): Linear(in_features=8, out_features=41, bias=True)
    (16): ReLU()
    (17): Dropout(p=0.10191305440215871, inplace=False)
    (18): Linear(in_features=41, out_features=127, bias=True)
    (19): ReLU()
    (20): Dropout(p=0.2939314145244084, inplace=False)
    (21): Linear(in_features=127, out_features=127, bias=True)
    (22): ReLU()
    (23): Dropout(p=0.2942618953304943, inplace=False)
    (24): Linear(in_features=127, out_features=20, bias=True)
    (25): ReLU()
  )
  (adder): InvLinear(in_features=20, out_features=1, bias=True, reduction=mean)
  (mlp): Sequential(
    (0): Linear(in_features=66, out_features=70, bias=True)
    (1): ReLU()
    (2): Dropout(p=0.26247755590254795, inplace=False)
    (3): Linear(in_features=70, out_features=16, bias=True)
    (4): ReLU()
    (5): Dropout(p=0.060128952330127466, inplace=False)
    (6): Linear(in_features=16, out_features=42, bias=True)
    (7): ReLU()
    (8): Dropout(p=0.05169496499357393, inplace=False)
    (9): Linear(in_features=42, out_features=113, bias=True)
    (10): ReLU()
    (11): Dropout(p=0.2444886408187952, inplace=False)
    (12): Linear(in_features=113, out_features=108, bias=True)
    (13): ReLU()
    (14): Dropout(p=0.23359712792451845, inplace=False)
    (15): Linear(in_features=108, out_features=10, bias=True)
    (16): ReLU()
    (17): Dropout(p=0.018279601219380947, inplace=False)
    (18): Linear(in_features=10, out_features=114, bias=True)
    (19): ReLU()
    (20): Dropout(p=0.29026578259762775, inplace=False)
    (21): Linear(in_features=114, out_features=97, bias=True)
    (22): ReLU()
    (23): Dropout(p=0.11794750419100783, inplace=False)
    (24): Linear(in_features=97, out_features=1, bias=True)
    (25): ReLU()
  )
)

++++++++++++++++++++
Model params: 83457.
Model params: 81001.
++++++++++++++++++++

NaN in epoch 0

VarMultiSetNet(
  (feature_extractor): Sequential(
    (0): Linear(in_features=15, out_features=40, bias=True)
    (1): ReLU()
    (2): Dropout(p=0.06751162685943021, inplace=False)
    (3): Linear(in_features=40, out_features=62, bias=True)
    (4): ReLU()
    (5): Dropout(p=0.14315702277349496, inplace=False)
    (6): Linear(in_features=62, out_features=106, bias=True)
    (7): ReLU()
    (8): Dropout(p=0.030662750597935336, inplace=False)
    (9): Linear(in_features=106, out_features=41, bias=True)
    (10): ReLU()
    (11): Dropout(p=0.18539147220721408, inplace=False)
    (12): Linear(in_features=41, out_features=26, bias=True)
    (13): ReLU()
    (14): Dropout(p=0.09207440729508357, inplace=False)
    (15): Linear(in_features=26, out_features=53, bias=True)
    (16): ReLU()
    (17): Dropout(p=0.04443024202366709, inplace=False)
    (18): Linear(in_features=53, out_features=97, bias=True)
    (19): ReLU()
    (20): Dropout(p=0.22612894732820643, inplace=False)
    (21): Linear(in_features=97, out_features=102, bias=True)
    (22): ReLU()
    (23): Dropout(p=0.21951655512604962, inplace=False)
    (24): Linear(in_features=102, out_features=23, bias=True)
    (25): ReLU()
  )
  (adder): InvLinear(in_features=23, out_features=1, bias=True, reduction=mean)
  (mlp): Sequential(
    (0): Linear(in_features=66, out_features=103, bias=True)
    (1): ReLU()
    (2): Dropout(p=0.2513866587943321, inplace=False)
    (3): Linear(in_features=103, out_features=39, bias=True)
    (4): ReLU()
    (5): Dropout(p=0.10029576722795555, inplace=False)
    (6): Linear(in_features=39, out_features=66, bias=True)
    (7): ReLU()
    (8): Dropout(p=0.06603605354885633, inplace=False)
    (9): Linear(in_features=66, out_features=99, bias=True)
    (10): ReLU()
    (11): Dropout(p=0.22448301713247423, inplace=False)
    (12): Linear(in_features=99, out_features=116, bias=True)
    (13): ReLU()
    (14): Dropout(p=0.17373516211701157, inplace=False)
    (15): Linear(in_features=116, out_features=29, bias=True)
    (16): ReLU()
    (17): Dropout(p=0.0696552005455939, inplace=False)
    (18): Linear(in_features=29, out_features=108, bias=True)
    (19): ReLU()
    (20): Dropout(p=0.24425879217878824, inplace=False)
    (21): Linear(in_features=108, out_features=74, bias=True)
    (22): ReLU()
    (23): Dropout(p=0.13962310766139271, inplace=False)
    (24): Linear(in_features=74, out_features=1, bias=True)
    (25): ReLU()
  )
)

++++++++++++++++++++
Model params: 46780.
Model params: 81960.
Model params: 72618.
Model params: 65929.
Model params: 78867.
Model params: 72072.
Model params: 90899.
++++++++++++++++++++

NaN in epoch 0

VarMultiSetNet(
  (feature_extractor): Sequential(
    (0): Linear(in_features=15, out_features=66, bias=True)
    (1): ReLU()
    (2): Dropout(p=0.13184454110782284, inplace=False)
    (3): Linear(in_features=66, out_features=75, bias=True)
    (4): ReLU()
    (5): Dropout(p=0.14721716891691153, inplace=False)
    (6): Linear(in_features=75, out_features=112, bias=True)
    (7): ReLU()
    (8): Dropout(p=0.2800075601223829, inplace=False)
    (9): Linear(in_features=112, out_features=47, bias=True)
    (10): ReLU()
    (11): Dropout(p=0.11449243163583564, inplace=False)
    (12): Linear(in_features=47, out_features=93, bias=True)
    (13): ReLU()
    (14): Dropout(p=0.15975401174560427, inplace=False)
    (15): Linear(in_features=93, out_features=77, bias=True)
    (16): ReLU()
    (17): Dropout(p=0.0869697915003478, inplace=False)
    (18): Linear(in_features=77, out_features=111, bias=True)
    (19): ReLU()
    (20): Dropout(p=0.10965074490836896, inplace=False)
    (21): Linear(in_features=111, out_features=112, bias=True)
    (22): ReLU()
    (23): Dropout(p=0.17442156028530398, inplace=False)
    (24): Linear(in_features=112, out_features=43, bias=True)
    (25): ReLU()
  )
  (adder): InvLinear(in_features=43, out_features=1, bias=True, reduction=mean)
  (mlp): Sequential(
    (0): Linear(in_features=66, out_features=44, bias=True)
    (1): ReLU()
    (2): Dropout(p=0.26812582770345544, inplace=False)
    (3): Linear(in_features=44, out_features=20, bias=True)
    (4): ReLU()
    (5): Dropout(p=0.06795691875668895, inplace=False)
    (6): Linear(in_features=20, out_features=41, bias=True)
    (7): ReLU()
    (8): Dropout(p=0.06327059273716899, inplace=False)
    (9): Linear(in_features=41, out_features=88, bias=True)
    (10): ReLU()
    (11): Dropout(p=0.26228400582582745, inplace=False)
    (12): Linear(in_features=88, out_features=128, bias=True)
    (13): ReLU()
    (14): Dropout(p=0.2966493737397572, inplace=False)
    (15): Linear(in_features=128, out_features=103, bias=True)
    (16): ReLU()
    (17): Dropout(p=0.1264793883423035, inplace=False)
    (18): Linear(in_features=103, out_features=1, bias=True)
    (19): ReLU()
  )
)

++++++++++++++++++++
Model params: 76506.
Model params: 25014.
Model params: 39351.
Model params: 80914.
Model params: 56900.
Model params: 70862.
Model params: 48901.
Model params: 66487.
Model params: 59244.
Model params: 78250.
Model params: 58914.
Model params: 36424.
Model params: 49587.
++++++++++++++++++++

NaN in epoch 0

VarMultiSetNet(
  (feature_extractor): Sequential(
    (0): Linear(in_features=15, out_features=84, bias=True)
    (1): ReLU()
    (2): Dropout(p=0.26102581768674904, inplace=False)
    (3): Linear(in_features=84, out_features=78, bias=True)
    (4): ReLU()
    (5): Dropout(p=0.015183686907904424, inplace=False)
    (6): Linear(in_features=78, out_features=100, bias=True)
    (7): ReLU()
    (8): Dropout(p=0.25312151111613623, inplace=False)
    (9): Linear(in_features=100, out_features=52, bias=True)
    (10): ReLU()
    (11): Dropout(p=0.16752936291259943, inplace=False)
    (12): Linear(in_features=52, out_features=23, bias=True)
    (13): ReLU()
  )
  (adder): InvLinear(in_features=23, out_features=1, bias=True, reduction=mean)
  (mlp): Sequential(
    (0): Linear(in_features=66, out_features=9, bias=True)
    (1): ReLU()
    (2): Dropout(p=0.09393346141167475, inplace=False)
    (3): Linear(in_features=9, out_features=21, bias=True)
    (4): ReLU()
    (5): Dropout(p=0.0877801163973237, inplace=False)
    (6): Linear(in_features=21, out_features=50, bias=True)
    (7): ReLU()
    (8): Dropout(p=0.048716658184905656, inplace=False)
    (9): Linear(in_features=50, out_features=94, bias=True)
    (10): ReLU()
    (11): Dropout(p=0.2697158027475023, inplace=False)
    (12): Linear(in_features=94, out_features=113, bias=True)
    (13): ReLU()
    (14): Dropout(p=0.299604212894431, inplace=False)
    (15): Linear(in_features=113, out_features=85, bias=True)
    (16): ReLU()
    (17): Dropout(p=0.052698198137690486, inplace=False)
    (18): Linear(in_features=85, out_features=1, bias=True)
    (19): ReLU()
  )
)

++++++++++++++++++++
Model params: 48655.
Model params: 32456.
Model params: 64300.
Model params: 81751.
Model params: 64553.
Model params: 50853.
Model params: 68121.
Model params: 60747.
Model params: 36309.
Model params: 42051.
Model params: 59724.
Model params: 30104.
Model params: 55727.
Model params: 71246.
Model params: 75055.
Model params: 76219.
Model params: 74935.
Model params: 74263.
Model params: 78744.
Model params: 80081.
Model params: 57244.
Model params: 71638.
Model params: 69641.
Model params: 74958.
Model params: 69252.
Model params: 76424.
Model params: 81155.
Model params: 72734.
++++++++++++++++++++

NaN in epoch 0

VarMultiSetNet(
  (feature_extractor): Sequential(
    (0): Linear(in_features=15, out_features=74, bias=True)
    (1): ReLU()
    (2): Dropout(p=0.14056027252012335, inplace=False)
    (3): Linear(in_features=74, out_features=80, bias=True)
    (4): ReLU()
    (5): Dropout(p=0.01893503879769101, inplace=False)
    (6): Linear(in_features=80, out_features=98, bias=True)
    (7): ReLU()
    (8): Dropout(p=0.2367556810051216, inplace=False)
    (9): Linear(in_features=98, out_features=90, bias=True)
    (10): ReLU()
    (11): Dropout(p=0.14102684034096977, inplace=False)
    (12): Linear(in_features=90, out_features=103, bias=True)
    (13): ReLU()
    (14): Dropout(p=0.033564244339422795, inplace=False)
    (15): Linear(in_features=103, out_features=41, bias=True)
    (16): ReLU()
    (17): Dropout(p=0.2800300452086223, inplace=False)
    (18): Linear(in_features=41, out_features=61, bias=True)
    (19): ReLU()
    (20): Dropout(p=0.2446676634519597, inplace=False)
    (21): Linear(in_features=61, out_features=35, bias=True)
    (22): ReLU()
    (23): Dropout(p=0.10486063960747465, inplace=False)
    (24): Linear(in_features=35, out_features=53, bias=True)
    (25): ReLU()
  )
  (adder): InvLinear(in_features=53, out_features=1, bias=True, reduction=mean)
  (mlp): Sequential(
    (0): Linear(in_features=66, out_features=59, bias=True)
    (1): ReLU()
    (2): Dropout(p=0.1308126246149094, inplace=False)
    (3): Linear(in_features=59, out_features=30, bias=True)
    (4): ReLU()
    (5): Dropout(p=0.16793899874931115, inplace=False)
    (6): Linear(in_features=30, out_features=33, bias=True)
    (7): ReLU()
    (8): Dropout(p=0.10957988120581684, inplace=False)
    (9): Linear(in_features=33, out_features=23, bias=True)
    (10): ReLU()
    (11): Dropout(p=0.11895942328959003, inplace=False)
    (12): Linear(in_features=23, out_features=124, bias=True)
    (13): ReLU()
    (14): Dropout(p=0.1285492113867625, inplace=False)
    (15): Linear(in_features=124, out_features=26, bias=True)
    (16): ReLU()
    (17): Dropout(p=0.20907371682281162, inplace=False)
    (18): Linear(in_features=26, out_features=118, bias=True)
    (19): ReLU()
    (20): Dropout(p=0.2680602989647973, inplace=False)
    (21): Linear(in_features=118, out_features=95, bias=True)
    (22): ReLU()
    (23): Dropout(p=0.29684794637483736, inplace=False)
    (24): Linear(in_features=95, out_features=1, bias=True)
    (25): ReLU()
  )
)

++++++++++++++++++++
Model params: 67345.
Model params: 85946.
Model params: 85069.
Model params: 88654.
Model params: 85269.
Model params: 90980.
Model params: 82294.
Model params: 87414.
Model params: 77828.
Model params: 76214.
Model params: 99157.
Model params: 80657.
Model params: 73820.
Model params: 74869.
Model params: 66285.
